backend/pretrain/case2/pretrain_full_0.ckpt (torch, 71537 bytes, 141 tensors)

sparse_emb.0.weight f4 [11, 8]
7.765573e-06 3.4341602e-10 -1.618336e-05 -1.10544576e-16 2.0154792e-05 -2.8304075e-20 0.00043889834 1.4859365e-06
1.4112152e-14 8.3511664e-13 0.001289318 -3.2821256e-14 -6.846089e-10 -4.198687e-07 3.2415706e-09 0.000874884
-4.440245e-17 -2.5406293e-16 -4.1805464e-07 -4.783646e-16 -5.952573e-15 9.537612e-20 1.4372307e-20 -4.365179e-18
1.1768e-41 -3.6772327e-20 3.9613e-41 -8.065416e-07 -3.6676085e-16 5.915747e-25 -7.006e-42 1.526447e-28
5.599596e-17 7.1755157e-16 2.6808566e-16 -1.9480535e-09 -3.9028565e-18 -8.611011e-15 2.351064e-23 -2.1844358e-11
-7.344613e-18 -1.0585349e-16 2.5625096e-17 2.708987e-07 8.02383e-19 2.1346864e-20 4.457052e-11 -1.4778326e-18
-0.00794243 -1.7779554e-09 1.9498701e-16 -4.575535e-06 -2.0808886e-18 4.60845e-05 2.6019596e-23 -3.2856603e-17
4.6009786e-06 8.998963e-28 2.626174e-28 3.9899113e-28 1.3004113e-28 8.335755e-31 9.6867e-15 1.9829814e-28
3.27144e-17 -9.9009436e-17 -5.349384e-08 -1.6272384e-16 -3.517099e-18 4.8727746e-20 4.2128293e-23 -9.2985813e-11
3.3734096e-18 7.1567987e-19 6.355104e-19 7.1496126e-19 2.6695047e-20 -8.38826e-24 2.484744e-10 -1.1786847e-19
-6.790319e-14 -2.4392044e-22 4.4756e-41 -4.755e-42 -0.00225432 4.1438467e-12 -1.0926154e-10 -3.8021228e-21
00000000: e248 0237 82cb bc2f 80c1 87b7 00e6 fea4
00000010: 1612 a937 87a9 059f f01b e639 6470 c735
00000020: d038 7e28 7f10 6b2b 55fe a83a 55d0 13a9
00000030: 122f 3cb0 516a e1b4 50c2 5e31 7958 653a
00000040: 29c5 4ca4 1275 92a5 fe70 e0b4 14e1 09a6
00000050: cc76 d6a7 5433 e11f 1bbe 871e f30b a1a2
00000060: ce20 0000 04a7 2d9f 6d6e 0000 1e81 58b5
00000070: 596c d3a5 6015 3717 8813 0080 0a80 4111
00000080: 2e1e 8124 f6d1 4e26 768a 9a25 85de 05b1
00000090: 70fd 8fa2 471f 1ba8 8661 e319 1f25 c0ad
000000a0: f47b 07a3 df14 f4a4 8c59 ec23 0970 9134
000000b0: 58d2 6c21 8d9d c91e f205 442e f016 daa1
000000c0: f720 02bc 3f5c f4b0 02ce 6025 8c87 99b6
000000d0: e08a 19a2 db4a 4138 66a5 fb19 3b86 17a4
000000e0: 1b62 9a36 2198 8e12 1c74 a611 03e4 fc11
000000f0: c2d8 2411 5f41 870d 0580 2e28 6d5f 7b11
00000100: 59de 1624 db4c e4a4 19c1 65b3 9a9b 3ba5
00000110: 10c2 81a2 3b1c 661f 4db8 4b1a 5c7a ccae
00000120: e8e9 7822 3e3b 5321 cf91 3b21 f204 5321
00000130: aa20 fc1e a740 2299 aa99 882f 8f27 0ba0
00000140: 86e7 98a9 dc70 939b c37c 0000 410d 0080
00000150: 37bd 13bb 74cc 912c c744 f0ae e0a3 8f9d

sparse_emb.1.weight f4 [11, 8]
-5.2515224e-18 7.8322086e-17 -4.6428106e-17 -2.81683e-16 5.933377e-18 -1.0745832e-19 3.7251823e-11 3.790367e-08
1.6263771e-14 -3.579846e-09 1.0030878e-13 -1.1292645e-13 -1.5161014e-14 -1.2135244e-11 9.573466e-20 -3.2899471e-15
-2.9054023e-05 3.0423086e-16 7.542015e-17 -1.2903128e-16 -3.637583e-18 -7.2214967e-09 9.912223e-22 3.7530723e-18
7.5881755e-05 -4.9e-42 1.1361432e-09 -1.4294135e-06 8.652963e-05 7.002e-42 2.012e-42 2.794e-42
8.553673e-17 -4.6426287e-12 1.5231971e-16 -2.5501565e-16 4.3666846e-06 1.675341e-20 3.5753518e-23 1.8326486e-17
-1.1773902e-17 6.612198e-18 2.0718864e-17 2.4498072e-17 -4.771823e-15 -3.69826e-10 -2.8055608e-08 3.1878941e-18
2.4908001e-26 -7.8560786e-16 3.4487492e-26 1.0047247e-10 -1.7681807e-27 1.2324556e-23 -1.35819425e-17 8.556825e-27
2.0802175e-35 -1.0761696e-10 -5.2798305e-14 5.0677643e-11 -3.6180437e-37 -3.0810175e-30 0.0014055748 -2.3270708e-36
9.578e-42 1.6343e-41 8.36944e-35 -0.00115334 -2.342e-42 1.6890244e-05 -1.663e-42 9.529e-42
7.851654e-17 -1.3650596e-16 1.0702159e-16 3.601617e-16 4.335216e-19 7.399965e-20 1.2672562e-23 -6.748362e-07
4.13519e-16 -2.9354787e-06 -2.106e-42 1.5369886e-13 1.1610782e-08 1.362737e-14 5.073e-42 -2.3348e-41
00000000: 3abf c1a2 3399 b424 a21c 56a4 1361 a2a5
00000010: 29e7 da22 92ba fd9f d3d5 232e 87cb 2233
00000020: b47d 9228 5101 76b1 13e0 e129 ab49 fea9
00000030: eb8e 88a8 487c 55ad 0d0c e21f d010 6da7
00000040: 0ab9 f3b7 8d60 af25 33e8 ad24 50c3 14a5
00000050: 0034 86a2 f520 f8b1 0eca 951c c476 8a22
00000060: b522 9f38 a90d 0080 7c26 9c30 46da bfb5
00000070: 3e77 b538 8513 0000 9c05 0000 ca07 0000
00000080: f93b c524 1559 a3ac d89c 2f25 ab01 93a5
00000090: 8985 9236 433b 9e1e b6e4 2c1a 3108 a923
000000a0: ae30 59a3 72f2 f322 0919 bf23 70f4 e123
000000b0: 4cec aba7 6250 cbaf effe f0b2 9e39 6b22
000000c0: 49ad f614 a16f 62a6 17c6 2a15 f9f0 dc2e
000000d0: f716 0c93 3f64 6e19 e98a 7aa3 427c 2914
000000e0: e834 dd05 f6a6 ecae 4dc8 6da9 f4e1 5e2e
000000f0: 363b f682 3bf6 798e 443b b83a 1df7 4584
00000100: b31a 0000 8f2d 0000 757f de06 ab2b 97ba
00000110: 8706 0080 86af 8d37 a304 0080 901a 0000
00000120: fc0b b524 7361 1da5 65c6 f624 7c9e cf25
00000130: efe7 ff20 0bba ae1f 7d1f 7519 6426 35b5
00000140: a260 ee25 24ff 44b6 df05 0080 ae0c 2d2a
00000150: c278 4732 277d 7528 240e 0000 1641 0080

sparse_emb.2.weight f4 [11, 8]
-1.6614096e-09 4.899825e-13 6.9818515e-09 -1.5620847e-16 1.371193e-18 -8.796375e-20 -5.026022e-23 6.606456e-17
-7.714801e-05 -3.283066e-14 1.32836835e-08 -6.245351e-14 -2.817969e-15 -2.3808344e-16 3.3085146e-21 -1.6185848e-14
1.1125587e-16 -3.3367965e-15 1.0143715e-08 -4.0529518e-05 -1.5583776e-18 -9.2951315e-12 -3.4280672e-11 -5.6955425e-05
1.2434e-41 -4.364e-42 -1.3603765e-15 1.6122538e-16 0.00012159361 -1.0861867e-24 -2.0571307e-11 2.2204189e-05
6.435451e-10 -6.947783e-17 5.7899235e-17 -8.153239e-17 -2.8381423e-18 -0.0002815394 -5.5449976e-07 -1.0012671e-17
3.6982362e-17 -6.001999e-17 2.6511988e-13 -1.3604761e-08 9.547783e-06 8.6201807e-10 3.6163384e-24 -6.750483e-08
-4.1736712e-05 2.849291e-18 7.0922795e-11 1.628829e-18 1.8806822e-19 1.0635984e-16 4.3660225e-26 1.1637702e-17
-4.3087138e-30 -3.4953498e-29 -2.9065174e-30 -6.6220515e-08 8.274178e-06 5.9218968e-05 -2.04865e-15 2.1540434e-06
8.764e-42 -1.5867e-41 1.3169001e-36 1.2275299e-25 -1.0001e-41 2.0939937e-16 2.5562844e-08 3.7e-43
-3.5702878e-09 6.6008755e-17 0.004865535 0.0035504475 -5.1168727e-18 7.409719e-20 -6.0736963e-23 -1.2270504e-17
2.2777086e-38 -1.233e-41 4.3046498e-16 -4.7931697e-33 5.585499e-25 -8.673108e-05 -1.187e-42 -1.0451377e-08
00000000: a757 e4b0 f6ea 092b 04e5 ef31 9a18 34a5
00000010: 355a ca21 d3b2 cf9f 240b 739a a255 9824
00000020: 86ca a1b8 2ddb 13a9 4236 6432 ffa1 8ca9
00000030: 5a0e 4ba7 ea3e 89a5 fbfb 791d 06ca 91a8
00000040: f044 0025 0871 70a7 8844 2e32 3dfe 29b8
00000050: d7f9 e5a1 8d85 23ad 9bc4 16ae 6ce3 6eb8
00000060: a922 0000 2a0c 0080 090d c4a6 55e1 3925
00000070: 1300 ff38 4a14 a897 77f2 b4ad 2243 ba37
00000080: 76e5 3030 7934 a0a4 ad81 8524 3a00 bca4
00000090: fe6a 51a2 949b 93b9 efd8 14b5 80b3 38a3
000000a0: 118d 2a24 8c65 8aa4 cd3f 952a 5fba 69b2
000000b0: 6a2f 2037 21f3 6c30 7be6 8b18 2cf7 90b3
000000c0: 740e 2fb8 963d 5222 fcf5 9b2e 6b5f f021
000000d0: 2208 5e20 c53f f524 e931 5815 7ead 5623
000000e0: 3ec8 ae8e 3c3c 3190 01ce 6b8e 1d35 8eb3
000000f0: 53d1 0a37 e261 7838 ec9e 13a7 2f8e 1036
00000100: 6e18 0000 3b2c 0080 170f e003 faf5 1716
00000110: e11b 0080 c96b 7125 4a95 db32 0801 0000
00000120: 2b59 75b1 b134 9824 116f 9f3b a0ae 683b
00000130: 7fc7 bca2 01f5 ae1f 5cda 929a d159 62a3
00000140: 4005 f800 5f22 0080 6b25 f825 b919 c789
00000150: e2dc 2c17 65e3 b5b8 4f03 0080 a48d 33b2

sparse_emb.3.weight f4 [11, 8]
-2.82152e-06 -4.493664e-14 -2.498658e-07 -1.3883434e-13 -7.948235e-15 -0.0007432251 1.7159671e-08 1.031761e-11
-7.703451e-17 -9.545652e-17 -3.8268522e-17 1.4029646e-16 -0.004601228 4.9983346e-09 -4.2595167e-07 7.712865e-09
4.4062034e-18 8.7306e-16 5.3658098e-17 -8.118616e-17 -0.0023214011 -1.8545187e-20 -6.7634023e-06 2.900625e-14
-1.9618934e-08 -1.3024026e-20 -0.0008679997 6.0055624e-12 1.0588409e-09 -1.0909e-41 -0.003370697 -1.5505558e-28
8.4875104e-08 -3.8334713e-16 -2.5705046e-14 -8.886691e-09 -3.220591e-17 -5.745457e-19 -1.2924009e-21 1.25892555e-17
3.0703977e-18 1.1216497e-06 -2.2975672e-11 -5.7443434e-18 -1.295856e-19 3.3389057e-18 1.6080304e-24 -0.0001068287
0.0016044315 -6.267812e-17 0.00033530232 -8.7991913e-17 -2.1892321e-18 3.010102e-20 -1.9614019e-05 -7.1933686e-18
1.2990236e-16 5.673629e-12 1.3057762e-21 -1.7382498e-12 3.7934317e-10 1.02971906e-25 3.301897e-30 -8.321981e-22
-2.4284515e-30 2.8036981e-30 -5.6717576e-30 5.7511565e-22 9.4425976e-18 5.0198035e-33 -8.689364e-09 -6.384564e-32
-2.4965213e-19 2.7900078e-18 6.9119543e-19 -8.684025e-19 4.1313613e-20 3.6483966e-22 -1.3312795e-26 -1.9017245e-14
1.7906513e-06 -0.00012904636 2.625e-42 -5.1427514e-07 4.694362e-11 2.7359264e-27 4.5123075e-37 -2.7264807e-15
00000000: 5859 3db6 6b60 4aa9 4b25 86b4 4650 1caa
00000010: c42e 0fa8 fed4 42ba 8466 9332 6282 352d
00000020: 26a1 b1a4 951b dca4 7f7b 30a4 35c0 2125
00000030: e6c5 96bb d1bd ab31 5aae e4b4 8a81 0432
00000040: 6a8f a222 75a4 7b26 4d74 7724 da33 bba4
00000050: a622 18bb 8327 af9e 2ff1 e2b6 eea1 0229
00000060: 7e86 a8b2 5304 769e 798a 63ba 4c4d d32c
00000070: a786 9130 691e 0080 e9e6 5cbb 6a8e 4491
00000080: 9544 b633 0dfc dca5 cd87 e7a8 15ac 18b2
00000090: 0786 14a4 7293 29a1 574d c39c 143b 6823
000000a0: 2c8e 6222 978b 9635 9d18 caad caed d3a2
000000b0: d8fc 18a0 255e 7622 a6d4 f817 3909 e0b8
000000c0: ca4b d23a a286 90a4 84cb af39 42e5 caa4
000000d0: 6d89 21a2 e625 0e1f c988 a4b7 b9b1 04a3
000000e0: 69c4 1525 829f c72c c552 c51c 0da3 f4ab
000000f0: ce8b d02f 33f2 fe15 dcf0 850e 3684 7b9c
00000100: f704 458e 8876 630e e612 e68e 6bd1 2d1c
00000110: 682f 2e23 b583 d009 3a48 15b2 b5c0 a58b
00000120: 5d5e 93a0 c2dd 4d22 4001 4c21 5227 80a1
00000130: 1819 431f 3488 dc1b f2d7 8394 c84a aba8
00000140: 4f56 f035 9e50 07b9 5107 0000 b80c 0ab5
00000150: d175 4e2e 2ec3 5813 be8b 1903 b176 44a7

sparse_emb.4.weight f4 [11, 8]
-7.0329464e-11 -0.0071406644 -0.0015814087 3.7183277e-11 -1.0311864e-15 2.4128587e-17 0.013033363 -6.1944956e-11
1.3141635e-16 -1.7699689e-14 1.9426171e-16 -3.2280627e-16 2.2590374e-09 1.4131954e-19 -4.617884e-23 1.4312481e-17
-1.5875312e-06 -5.033204e-17 6.375436e-14 -3.2510665e-16 6.129322e-15 7.042018e-20 2.880484e-21 -6.742336e-18
-4.4915762e-08 -3.756557e-28 -6.392127e-28 -1.5023795e-21 1.389116e-28 -2.0953693e-30 -1.2622444e-13 -1.4564588e-28
4.472965e-17 1.9041193e-15 1.3310411e-16 -8.423653e-09 5.3539617e-19 1.15202466e-11 -4.1450857e-11 -5.557669e-06
-3.8371471e-19 -7.076659e-17 -5.823532e-13 4.948699e-19 -7.037924e-06 4.979386e-09 -8.596939e-07 1.1953335e-19
0.0012299741 2.045632e-18 1.01483196e-19 -1.7287946e-18 -1.5989526e-05 4.195664e-22 3.1638598e-26 -6.181384e-12
3.75415e-17 -6.187179e-17 3.7040417e-17 -7.5391564e-17 -7.2248543e-16 3.3521174e-20 1.4843552e-23 -6.471422e-18
-0.002747166 -1.0435418e-12 2.3716421e-21 1.8954488e-21 2.6831746e-16 -2.9333799e-24 -2.4649893e-08 -1.0371763e-08
-2.2181686e-29 -2.7349806e-21 8.824453e-30 -3.5455583e-31 -1.7068982e-31 4.8122914e-32 8.124294e-05 -1.293229e-28
3.508877e-08 -3.799866e-17 -2.2478694e-06 -2.6205655e-18 6.235567e-14 1.0008e-41 -4.3682592e-11 -7.602e-42
00000000: f8a7 9aae 3cfc e9bb 4547 cfba a688 232e
00000010: 109c 94a6 048c de23 e389 553c e937 88ae
00000020: 4383 1725 b46c 9fa8 f0f7 5f25 cc15 baa5
00000030: 683d 1b31 36d7 2620 a34e 5f9a 6402 8423
00000040: 2813 d5b5 961d 68a4 e38f 8f29 4669 bba5
00000050: 04d5 dc27 6346 a61f aaa4 591d 90bf f8a2
00000060: 67e9 40b3 9f19 ee91 1893 4a92 7e08 e39c
00000070: 6417 3011 1eff 298e b81d 0eaa caa0 3891
00000080: 7347 4e24 cd34 0927 6675 1925 9eb7 10b2
00000090: 6405 1e21 94aa 4a2d 844d 36ae 037c bab6
000000a0: 5481 e2a0 392d a3a4 f8ea 23ab 500f 1221
000000b0: 4f27 ecb6 2417 ab31 b7c5 66b5 bd1e 0d20
000000c0: 1537 a13a e5f0 1622 d49e ef1f 0320 ffa1
000000d0: 3f21 86b7 c19c fd1b b0aa 1c15 f57c d9ac
000000e0: 2e21 2d24 a9aa 8ea4 9bd1 2a24 53d7 ada4
000000f0: 043e 50a6 9d4c 1e1f db8e 8f19 dac0 eea2
00000100: cc09 34bb 8edd 92ab 3b32 331d 5037 0f1d
00000110: abac 9a25 93f5 6298 b0bd d3b2 7f2f 32b2
00000120: f3f2 e08f 38a6 4e9d 2efb 320f b11e e68c
00000130: 6c91 5d8c 53de 790b f960 aa38 aeef 2391
00000140: 83b4 1633 e63c 2fa4 1ada 16b6 155d 41a2
00000150: 9969 8c29 e61b 0000 3a1e 40ae 3115 0080

dense_emb.0.weight f4 [8, 1]
-0.054216895 0.06970743 -0.0177926 0.07257241 0.05345827 -0.044327628 -0.0051570637 0.049507875
00000000: 8912 5ebd c5c2 8e3d c9c1 91bc d8a0 943d
00000010: 0ff7 5a3d e390 35bd 96fc a8bb c5c8 4a3d

dense_emb.0.bias f4 [8]
1.156067e-10 -1.06771335e-10 2.0673697e-10 -2.2739981e-10 -2.437959e-10 9.806332e-11 1.0338945e-12 -7.395352e-11
00000000: c938 fe2e ebca eaae 494f 632f 5b07 7aaf
00000010: 3907 86af bea4 d72e fa81 912b 21a0 a2ae

dense_emb.1.weight f4 [8, 1]
2.156648e-14 -2.1773577e-13 5.986388e-14 -1.3481597e-13 -7.848499e-15 2.6646897e-17 1.9194894e-19 -7.666042e-15
00000000: eb40 c228 1026 75aa 2dcd 8629 0fca 17aa
00000010: d062 0da8 35c6 f523 029d 6220 6119 0aa8

dense_emb.1.bias f4 [8]
7.506746e-15 -2.6128891e-14 -3.0806927e-13 1.3564595e-14 -8.447098e-15 2.7764923e-17 6.8363045e-21 -3.1165656e-15
00000000: c13a 0728 1f59 eba8 766d adaa a75b 7428
00000010: 5d2b 18a8 090b 0024 5722 011e 7d92 60a7

dense_emb.2.weight f4 [8, 1]
1.5264648e-14 -3.4830157e-14 2.3851772e-14 -4.1373927e-14 -4.779288e-15 1.2664423e-13 -6.086481e-20 -1.1008369e-13
00000000: e27d 8928 70dc 1ca9 71d6 d628 e454 3aa9
00000010: 2731 aca7 b796 0e2a 85b6 8f9f ede2 f7a9

dense_emb.2.bias f4 [8]
2.627636e-14 -2.7740727e-14 2.8696565e-14 -2.4352844e-14 -7.1259664e-16 7.163606e-18 -3.2438536e-21 -5.878792e-15
00000000: 29ad ec28 c3dd f9a8 e33c 0129 d659 dba8
00000010: 5a64 4da6 2c25 0423 4119 759d 49ce d3a7

dense_emb.3.weight f4 [8, 1]
2.8577347e-14 -2.7259556e-13 5.0093837e-14 -4.6483305e-14 -1.5381066e-14 1.5223768e-16 1.1197202e-21 -8.825382e-14
00000000: 70b3 0029 2975 99aa 439a 6129 9a57 51a9
00000010: 538a 8aa8 a284 2f25 1435 a91c ddba c6a9

dense_emb.3.bias f4 [8]
4.648868e-14 5.3147157e-13 4.3137426e-13 -4.706234e-13 -2.560461e-15 7.256929e-17 1.6735357e-21 2.8773173e-13
00000000: cd5d 5129 9098 152b 95d7 f22a fd77 04ab
00000010: 2b80 38a7 5955 a724 c7e5 fc1c 83fa a12a

dense_emb.4.weight f4 [8, 1]
4.5693193e-12 -3.5818362e-12 2.9338025e-12 -7.03958e-12 -4.7417917e-14 -2.9158891e-15 -1.5031956e-17 -1.0059129e-13
00000000: c5c4 a02c a00c 7cac b072 4e2c e6ae f7ac
00000010: 238d 55a9 a91c 52a7 34a5 8aa3 ee82 e2a9

dense_emb.4.bias f4 [8]
3.0079082e-14 -2.9955893e-14 -8.553374e-13 -3.4591029e-13 -1.2149909e-15 4.341993e-17 4.3368013e-21 -2.479946e-15
00000000: d276 0729 cbe8 06a9 8ec1 70ab edba c2aa
00000010: 4119 afa6 353d 4824 f8d6 a31d eeb2 32a7

dense_emb.5.weight f4 [8, 1]
-2.980202e-14 4.2980016e-13 -1.5049474e-13 6.555903e-14 2.2143372e-15 -3.142172e-16 -9.1133566e-21 5.8299342e-15
00000000: 6437 06a9 bbf4 f12a 2871 29aa 35a0 9329
00000010: 508f 1f27 4622 b5a5 7d25 2c9e a70b d227

dense_emb.5.bias f4 [8]
1.1987949e-13 -1.805662e-14 2.4287272e-14 -2.5352438e-14 -9.725227e-16 -9.673704e-14 8.219632e-21 -3.590126e-15
00000000: e9f8 062a bba3 a2a8 a3c2 da28 be5a e4a8
00000010: c127 8ca6 1bd5 d9a9 b443 1b1e 1159 81a7

dense_emb.6.weight f4 [8, 1]
0.00059758505 0.012757425 -4.3215437e-05 0.0056179864 -0.011752366 0.0042259432 0.0011807055 0.00031851028
00000000: 41a7 1c3a 8504 513c 3942 35b8 1617 b83b
00000010: ff8c 40bc c879 8a3b e7c1 9a3a bafd a639

dense_emb.6.bias f4 [8]
8.19633e-11 -4.8468358e-11 4.5570728e-11 -3.4320147e-10 5.0797766e-10 -5.863332e-11 -8.2616004e-11 -6.6616884e-15
00000000: 3c3d b42e 852a 55ae 146c 482e 50ad bcaf
00000010: c0a1 0b30 a0ef 80ae adac b5ae 3b03 f0a7

dense_emb.7.weight f4 [8, 1]
-0.0005880117 -1.3274716e-12 -0.01007161 -0.0074471645 -3.0482337e-05 0.0050131236 2.1526788e-05 7.635564e-05
00000000: cc24 1aba 34d3 baab 6503 25bc 5807 f4bb
00000010: 52b4 ffb7 2145 a43b 6d94 b437 1f21 a038

dense_emb.7.bias f4 [8]
1.6854157e-13 -6.2176636e-14 8.8811354e-11 5.263883e-10 2.6175855e-15 -7.8979066e-11 -1.0741717e-12 -7.488518e-15
00000000: cdc2 3d2a 6402 8ca9 594c c32e 49b1 1030
00000010: ee9d 3c27 43ad adae 1d2d 97ab b2e6 06a8

dense_emb.8.weight f4 [8, 1]
0.0002801756 -3.308405e-05 -0.0016952965 -0.0011962651 0.004914065 -0.004197761 -0.0017337186 0.0036860667
00000000: 88e4 9239 bac3 0ab8 b634 deba ffcb 9cba
00000010: 2a06 a13b 5f8d 89bb f13d e3ba f091 713b

dense_emb.8.bias f4 [8]
2.01873e-13 -2.6380825e-11 5.203957e-10 1.3787806e-10 -1.0219815e-10 4.3878717e-10 7.8882706e-11 -2.082832e-11
00000000: ee49 632a 560c e8ad 980b 0f30 3999 172f
00000010: 72bc e0ae ce39 f12f 0477 ad2e 3535 b7ad

dense_emb.9.weight f4 [8, 1]
2.8362463e-05 -0.01033158 0.008908787 4.3123135e-05 -3.6627614e-05 -0.0013276641 1.736437e-05 0.0008434303
00000000: edeb ed37 ca45 29bc 29f6 113c 1ddf 3438
00000010: 9aa0 19b8 0405 aeba b3a9 9137 a619 5d3a

dense_emb.9.bias f4 [8]
1.7962174e-14 2.6495306e-10 -3.2816333e-11 -1.3765937e-10 1.8352502e-11 -1.3932556e-10 -7.712031e-16 -2.374269e-11
00000000: f4c9 a128 d4a8 912f e853 10ae ab5b 17af
00000010: 296e a12d a930 19af bf48 5ea6 c9d7 d0ad

dense_emb.10.weight f4 [8, 1]
-0.000113655224 -0.0002453354 0.0019988245 0.0002972045 0.0013904239 0.0004311746 1.538387e-08 4.280336e-06
00000000: 2f5a eeb8 5ca0 80b9 b6fe 023b 1dd2 9b39
00000010: e23e b63a 460f e239 7d25 8432 ce9f 8f36

dense_emb.10.bias f4 [8]
-7.318112e-11 -1.8628114e-10 -2.1750032e-11 -1.4331932e-11 -3.3770053e-11 -1.4574175e-11 9.604882e-10 -2.3749544e-15
00000000: 4fed a0ae 7bd1 4caf b850 bfad 4921 7cad
00000010: b385 14ae 2032 80ad 2d02 8430 2d22 2ba7

dense_emb.11.weight f4 [8, 1]
-0.0010248318 -1.0189855e-05 -4.672323e-13 -0.00024330571 2.3430796e-07 0.00022431949 -1.7298007e-05 5.8658577e-14
00000000: a653 86ba 18f5 2ab7 a383 03ab e11f 7fb9
00000010: 1596 7b34 4e37 6b39 301b 91b7 5e16 8429

dense_emb.11.bias f4 [8]
8.6497184e-11 -4.602521e-13 5.1401744e-14 5.466418e-11 -1.5346e-11 -3.814293e-11 6.468295e-10 -2.22521e-15
00000000: 9635 be2e a98c 01ab 2d7e 6729 656a 702e
00000010: 1ffc 86ad 1fc1 27ae 94cc 3130 e157 20a7

dense_emb.12.weight f4 [8, 1]
2.7120558e-13 5.6341633e-12 0.0006738729 5.920281e-11 0.00028357678 1.6286125e-11 2.3526877e-12 6.478355e-13
00000000: d8ac 982a 083c c62c d8a6 303a 3830 822e
00000010: 08ad 9439 1841 8f2d 418e 252c 7859 362b

dense_emb.12.bias f4 [8]
2.565464e-14 3.4396143e-12 -2.0985481e-12 9.359805e-12 -2.2297367e-10 1.4090884e-12 -1.07314475e-14 -4.8810125e-15
00000000: 9313 e728 950a 722c 15ac 13ac d0a8 242d
00000010: 8229 75af c34f c62b 1152 41a8 65db afa7

dense_emb.13.weight f4 [8, 1]
1.346664e-05 -3.0110148e-13 2.0009928e-13 -1.0282581e-12 -3.8320389e-10 -1.1252118e-10 -0.0031279754 -3.1738262e-05
00000000: c7ee 6137 4c81 a9aa b14a 612a e7b6 90ab
00000010: 27ab d2af cb6f f7ae b8fe 4cbb b31e 05b8

dense_emb.13.bias f4 [8]
-3.719747e-13 -4.1048645e-13 1.5133684e-14 -1.04503835e-13 1.0226413e-14 1.2055157e-16 8.29093e-12 1.071707e-12
00000000: 3467 d1aa 5515 e7aa e64f 8828 5c52 eba9
00000010: 0139 3828 8bfc 0a25 07db 112d 50d4 962b

dense_emb.14.weight f4 [8, 1]
7.4637204e-13 4.000534e-12 0.00034279376 0.00014643598 -8.692967e-06 1.7415977e-11 4.5344045e-06 -0.00063789566
00000000: c615 522b 9bc1 8c2c 00b9 b339 9c8c 1939
00000010: 02d8 11b7 4b31 992d 3d26 9836 7438 27ba

dense_emb.14.bias f4 [8]
7.393617e-15 1.8687368e-13 3.3459116e-14 1.5621877e-12 -7.258747e-13 3.2421633e-14 1.4651264e-20 3.5866458e-14
00000000: 0a31 0528 ac66 522a bcaf 1629 bedb db2b
00000010: c950 4cab 9903 1229 9560 8a1e 3687 2129

dense_emb.15.weight f4 [8, 1]
-3.038504e-05 -1.7533808e-11 -0.0021345215 -8.313247e-12 -3.6583283e-13 0.0009876739 4.108705e-19 -5.18416e-12
00000000: 60e3 feb7 a03a 9aad 54e3 0bbb 893f 12ad
00000010: 11f2 cdaa d674 813a ff88 f220 c366 b6ac

dense_emb.15.bias f4 [8]
1.8122053e-14 -4.2354794e-13 1.4320828e-13 -2.7086926e-14 -5.3935615e-15 -6.972457e-13 7.712701e-16 -7.553246e-15
00000000: 9c3a a328 b16f eeaa fa3c 212a 33fa f3a8
00000010: d352 c2a7 d941 44ab b04d 5e26 3311 08a8

dense_emb.16.weight f4 [8, 1]
3.1998893e-11 -3.9935923e-11 6.7364093e-11 -2.3256126e-11 -1.8592979e-12 1.9348412e-11 -4.2931276e-08 -5.614579e-12
00000000: 8dbb 0c2e daa3 2fae 9d22 942e 2490 ccad
00000010: 22d6 02ac c030 aa2d 7063 38b3 a28b c5ac

dense_emb.16.bias f4 [8]
1.6718874e-14 -2.700245e-14 3.864146e-14 -5.1882794e-14 -1.0723689e-15 -3.9755123e-15 1.1175091e-14 -5.490159e-15
00000000: 1997 9628 6937 f3a8 9206 2e29 caa8 69a9
00000010: 6e8b 9aa6 a13b 8fa7 0350 4928 c7cd c5a7

dense_emb.17.weight f4 [8, 1]
1.7539825e-11 -4.74166e-11 5.213293e-11 -8.4813984e-10 -1.25782405e-11 3.416913e-14 -1.7311883e-18 -1.7898714e-11
00000000: 2d48 9a2d 588a 50ae 7648 652e 8922 69b0
00000010: 5c47 5dad 53e2 1929 727a ffa1 5270 9dad

dense_emb.17.bias f4 [8]
1.4259256e-13 -4.1551018e-14 1.4114794e-13 -2.290668e-14 -6.9009887e-16 1.05579605e-17 -7.547888e-22 -2.2757753e-15
00000000: 828b 202a 1021 3ba9 20eb 1e2a 3553 cea8
00000010: 4fe8 46a6 8fc2 4223 f41e 649c a5fc 23a7

interact.wq.weight f4 [8, 8]
-1.4373882e-15 0.0010345152 -4.939289e-16 -0.012864022 0.0082400935 -1.1385062e-15 0.00028473468 0.017412636
-1.5133124e-35 -1.4576607e-34 1.8065553e-35 -4.3119286e-34 -9.0861707e-35 -2.4119393e-35 7.720649e-35 5.791071e-34
-1.8914423e-38 -1.6967607e-36 -7.5713367e-38 1.5725334e-37 1.9548284e-37 -1.0737961e-38 2.6511181e-37 1.9214852e-36
1.0616333e-33 2.9579417e-34 -1.0619441e-35 -2.5842865e-33 -1.6154156e-33 2.0104023e-35 -4.534716e-34 1.7614036e-31
-8.4536e-41 -6.38018e-40 -4.42e-42 6.14958e-40 1.3267e-40 1.1111e-41 3.93265e-40 -1.109785e-39
1.34e-41 2.52223e-40 -4.1841e-41 -1.3987e-40 -2.9561e-40 2.221e-42 8.37165e-40 2.170289e-39
-6.062392e-37 -8.466698e-36 5.3855183e-36 5.306414e-35 6.4911625e-35 1.8983464e-36 2.3534892e-35 -1.0282802e-34
8.9807116e-37 1.7368701e-35 9.791129e-38 1.7390252e-35 -6.8161625e-36 -2.6884743e-37 7.826647e-36 2.148795e-35
00000000: 4426 cfa6 9298 873a 855d 0ea6 9ec3 52bc
00000010: 7501 073c 7713 a4a6 7148 9539 f2a4 8e3c
00000020: 48ec a085 a0c1 4187 1d1b c005 d549 0f88
00000030: 468d f186 9e3d 0086 0440 cd06 fc70 4008
00000040: b7f5 cd80 2d58 1084 841c ce81 cb0a 5602
00000050: ea09 8502 11ed 7480 fe6c b402 3e76 2304
00000060: e364 b008 c596 c407 bcd9 6185 b2b1 5689
00000070: 1734 0689 5bc8 d505 19b1 1688 ada4 640c
00000080: a7eb 0080 89f2 0680 520c 0080 41b2 0600
00000090: d471 0100 f91e 0000 4348 0400 a115 0c80
000000a0: 5b25 0000 18bf 0200 a374 0080 e785 0180
000000b0: 0a38 0380 3106 0000 ad1d 0900 e2a1 1700
000000c0: e24a 4e83 1711 3485 1a13 e504 9511 8d06
000000d0: 9090 ac06 537e 2104 1244 fa05 90ae 0887
000000e0: 84cc 9803 1ab2 b805 1b45 0502 c5ec b805
000000f0: b8f6 1085 d4f7 b682 5274 2605 c47f e405

interact.wk.weight f4 [8, 8]
3.9832466e-09 -4.8851017e-09 1.4255208e-09 -4.9476143e-09 -6.6874777e-09 4.937761e-09 1.1242149e-09 -6.114538e-09
2.9924614e-35 -2.7064626e-34 2.2456864e-34 2.1935087e-34 9.828821e-35 -4.0406356e-34 -1.3289236e-36 -4.4497857e-35
4.8949026e-38 1.5080866e-37 2.3010851e-38 4.2665724e-38 -2.2946343e-37 -7.7271835e-38 1.5140056e-37 2.445206e-38
-1.3964201e-34 -2.3622757e-34 -2.9891733e-34 5.833496e-34 5.1746547e-35 -6.8396165e-36 1.0570114e-34 -1.1891739e-34
-1.29537e-40 -3.31515e-40 1.73607e-40 1.22311e-40 -1.95792e-40 -6.9738e-41 -2.3908e-41 -1.02635e-40
4.4612e-41 -1.0891e-41 2.1069e-41 1.2006e-41 6.441e-41 5.258e-41 7.7066e-41 2.3194e-41
2.8544869e-35 9.048725e-36 3.320514e-35 -6.0762485e-35 1.2330554e-35 4.7720102e-36 4.8529504e-37 7.158017e-36
-7.373725e-37 3.3967252e-36 1.5659697e-36 3.248786e-36 1.2293217e-36 -1.3282713e-36 7.331288e-38 -9.0861905e-37
00000000: 02dd 8831 cfd9 a7b1 0eec c330 adff a9b1
00000010: adc7 e5b1 01a9 a931 cc82 9a30 0c18 d2b1
00000020: 461b 1f06 13e0 b387 6040 9507 9ec8 9107
00000030: bfa5 0207 ed45 0688 c91a e283 5897 6c86
00000040: 7e40 8501 2645 4d02 e490 fa00 574b 6801
00000050: 2b2a 9c82 9c5a d281 6513 4e02 3321 0501
00000060: b79d 3987 0a00 9d87 26aa c687 e5d9 4108
00000070: e090 8906 6a76 1185 3c80 0c07 7e11 1e87
00000080: 1969 0180 219c 0380 f2e3 0100 f454 0100
00000090: ca21 0280 67c2 0080 a542 0080 1b1e 0180
000000a0: 5c7c 0000 5c1e 0080 bb3a 0000 7821 0000
000000b0: 8db3 0000 9292 0000 d4d6 0000 a840 0000
000000c0: 43c5 1706 f271 4005 7f8c 3006 ce88 a186
000000d0: f61e 8305 97fa ca04 2923 2503 f43b 1805
000000e0: 34ea 7a83 107b 9004 cd37 0504 2630 8a04
000000f0: 8328 d103 60fe e183 9f93 c701 f197 9a83

interact.wv.weight f4 [8, 8]
-3.912637e-07 0.00012740381 -2.710992e-05 2.2854136e-05 3.7698964e-09 -2.8065017e-09 -1.7400226e-09 3.294515e-09
6.528929e-05 -0.0003533721 8.383668e-05 -0.0011610904 -8.742885e-09 2.0851085e-09 6.7279365e-10 -3.4929235e-06
-2.0695856e-09 3.155433e-09 -7.7428364e-10 9.262783e-08 3.4490175e-09 -3.3244376e-09 -1.2056209e-09 2.4296096e-09
0.00013086917 -0.0011791101 0.0004015861 -0.0015423143 -1.5504984e-06 1.1879433e-09 3.1602415e-10 -1.1575004e-06
-0.002696199 0.0066090645 -0.0039171916 0.009803255 0.00016897079 -2.0701864e-06 1.7740957e-10 0.0006281579
0.00012942692 -0.00021620667 1.3916626e-05 -0.0029151675 -6.483823e-09 6.078503e-10 1.9219754e-10 -7.362414e-05
-2.9577184e-05 0.0005554973 -0.00022139572 0.0003719959 1.9299134e-06 -2.387667e-09 -5.761258e-11 1.5632539e-08
-1.1674764e-05 8.3221385e-06 -2.6440034e-07 0.00057715084 -1.7404583e-09 2.0139408e-09 5.597708e-10 6.217316e-06
00000000: e00e d2b4 b397 0539 1c6a e3b7 e2b6 bf37
00000010: 5c88 8131 80dc 40b1 9a25 efb0 b965 6231
00000020: eceb 8838 cd44 b9b9 7ad1 af38 bb2f 98ba
00000030: 9d33 16b2 9e49 0f31 a5ef 3830 f867 6ab6
00000040: 8938 0eb1 f7d6 5831 5ed5 54b0 b0ea c633
00000050: c203 6d31 2074 64b1 04b3 a5b0 25f6 2631
00000060: ed39 0939 5f8c 9aba f98b d239 7b27 caba
00000070: b81a d0b5 0a45 a330 72bc ad2f 695b 9bb5
00000080: b7b2 30bb da90 d83b c95b 80bb d59d 203c
00000090: c02d 3139 88ed 0ab6 5b10 432f f7aa 243a
000000a0: c6b6 0739 89b5 62b9 747b 6937 650c 3fbb
000000b0: 4fc8 deb1 aa15 2730 cc52 532f a966 9ab8
000000c0: 851c f8b7 cb9e 113a 7626 68b9 7208 c339
000000d0: a983 0136 4814 24b1 0062 7dae 5148 8632
000000e0: bbde 43b7 509f 0b37 e8f2 8db4 f04b 173a
000000f0: ef34 efb0 9f65 0a31 5ede 1930 569e d036

interact.res.weight f4 [8, 184]
-1.1208e-41 -3.897e-42 1.1393e-41 -1.9416e-41 6.924e-42 7.774e-42 -1.5703e-41 1.0245e-41
3.2252e-41 -5.988e-42 -1.877e-41 -2.744e-42 -1.6638e-41 -6.173e-42 -7.774e-42 1.9732e-41
3.0176e-41 -2.008e-41 -8.24e-43 -1.8168e-41 9.37e-42 2.0351e-41 2.1642e-41 1.572e-42
1.2813e-41 1.2707e-41 -1.0707e-41 2.0797e-41 -1.0018e-41 -1.3967e-41 8.043e-42 -1.3786e-41
-1.023e-41 -2.615e-42 -2.0173e-41 -1.6961e-41 1.4181e-41 1.185e-41 1.0193e-41 6.955e-42
-8.6052e-41 -2.15601e-40 5.64575e-40 3.19102e-40 -3.6984e-41 -4.9145e-41 -1.7143e-41 -4.887e-41
1.2387e-41 -2.68e-42 -2.1523e-41 -1.9212e-41 -9.911e-42 -7.127e-42 -1.3572e-41 -1.7623e-41
1.3538e-41 -3.62e-42 1.2022e-41 1.9533e-41 1.2994e-41 2.2194e-41 2.0226e-41 -1.9925e-41
8.8e-44 -1.0955e-41 1.4555e-41 2.7873e-41 -9.085e-42 -1.0234e-41 5.932e-42 6.585e-42
-8.656e-42 1.181e-41 1.9903e-41 -3.6648e-41 -7.626e-42 -1.3277e-41 1.0499e-41 6.433e-42
-1.246e-41 -8.223e-42 2.4982e-41 -4.361e-42 -1.9117e-41 -7.577e-42 -1.2198e-41 1.3741e-41
6.318e-42 -1.9028e-41 -9.39e-43 2.115e-41 8.82e-42 -3.135e-42 1.993e-42 -3.642e-42
-5.731e-42 -4.071e-42 -2.4761e-41 1.665e-41 3.575e-42 -8.858e-42 3.81e-42 -2.116e-42
-8.51e-42 -1.3565e-41 -1.007e-41 -1.1025e-41 2.0022e-41 1.9869e-41 2.2997e-41 -2.281e-42
-1.9784e-41 -1.686e-42 1.7122e-41 -1.6198e-41 1.1741e-41 -1.3214e-41 -1.8499e-41 1.2266e-41
-1.5332e-41 2.2215e-41 -2.5728e-41 2.4277e-41 -7.624e-42 4.938e-42 1.1286e-41 2.3486e-41
7.184e-42 1.512e-42 2.801e-42 2.6152e-41 1.0445e-41 -1.9593e-41 6.496e-42 -1.1943e-41
4.295e-42 -5.737e-42 -2.2091e-41 2.3511e-41 3.01e-42 1.4285e-41 -1.5302e-41 3.5477e-41
-8.255e-42 -1.1507e-41 1.0064e-41 1.6147e-41 8.874e-42 -4.498e-42 -1.4243e-41 -1.2201e-41
6.803e-42 1.4126e-41 6.641e-42 6.538e-42 1.5374e-41 -9.173e-42 -1.7092e-41 1.7579e-41
1.1143e-41 -1.1548e-41 -9.351e-42 1.7003e-41 5.832e-42 -2.1234e-41 -9.51e-43 -2.1902e-41
-9.809e-42 1.7704e-41 -1.8172e-41 -6.978e-42 -1.081e-41 -1.6483e-41 5.552e-42 2.3599e-41
2.721e-42 -1.2896e-41 1.5563e-41 -1.0064e-41 2.675e-42 3.2881e-41 -1.6332e-41 -1.3464e-41
-5.9607715e-11 2.4792446e-10 -1.4885903e-11 4.2321627e-10 -1.4237589e-09 7.590441e-10 -8.398911e-10 -5.369898e-10
-5.3098297e-11 2.4668168e-10 -3.3795215e-14 4.1591144e-10 -1.4137258e-09 7.419516e-10 -7.6117906e-10 -5.085974e-10
-5.6008306e-11 2.5515745e-10 2.9267943e-14 4.2550954e-10 -1.4613695e-09 7.9967366e-10 -8.2329354e-10 -5.1694327e-10
-5.5427374e-11 2.3435173e-10 -2.734843e-14 3.8621575e-10 -1.3921474e-09 7.03134e-10 -8.435914e-10 -5.1473303e-10
-5.658654e-11 2.8892497e-10 1.84722e-11 4.1411896e-10 -1.4021235e-09 7.480113e-10 -1.1190975e-09 -4.809501e-10
-0.068949595 0.07129707 -0.066091865 0.07189178 0.066819824 -0.056678332 -0.0001789233 0.06422024
-5.87386e-11 2.4780855e-10 -3.4283537e-14 4.1905013e-10 -1.4175611e-09 7.585549e-10 -8.4743496e-10 -5.176782e-10
-5.8229366e-11 2.482835e-10 -3.4117894e-14 4.2118242e-10 -1.4193559e-09 7.633177e-10 -7.1635375e-10 -5.0891424e-10
-5.8565285e-11 2.4757574e-10 -3.4137647e-14 4.1608555e-10 -1.4118253e-09 7.5355616e-10 -7.7715145e-10 -5.0459376e-10
00000000: 3e1f 0080 dd0a 0080 c21f 0000 2036 0080
00000010: 4d13 0000 ac15 0000 c62b 0080 8f1c 0000
00000020: e859 0000 b110 0080 5334 0080 a607 0080
00000030: 612e 0080 3511 0080 ac15 0080 0137 0000
00000040: 1e54 0000 fa37 0080 4c02 0080 a532 0080
00000050: 1f1a 0000 bb38 0000 543c 0000 6204 0000
00000060: b823 0000 6c23 0000 d91d 0080 f939 0000
00000070: ed1b 0080 ef26 0080 6c16 0000 6e26 0080
00000080: 841c 0080 4a07 0080 3c38 0080 482f 0080
00000090: 8827 0000 0821 0000 6a1c 0000 6313 0000
000000a0: e1ef 0080 0259 0280 ce25 0600 8779 0300
000000b0: 1967 0080 ff88 0080 ca2f 0080 3b88 0080
000000c0: 8822 0000 7907 0080 ff3b 0080 8e35 0080
000000d0: a11b 0080 de13 0080 d525 0080 2031 0080
000000e0: bd25 0000 170a 0080 8321 0000 7336 0000
000000f0: 3924 0000 de3d 0000 6238 0000 8b37 0080
00000100: 3f00 0000 8a1e 0080 9328 0000 b34d 0000
00000110: 5319 0080 871c 0080 8910 0000 5b12 0000
00000120: 2118 0080 ec20 0000 7b37 0000 2966 0080
00000130: 4215 0080 0325 0080 441d 0000 ef11 0000
00000140: bc22 0080 ec16 0080 a445 0000 280c 0080
00000150: 4a35 0080 1f15 0080 0122 0080 4e26 0000
00000160: 9d11 0000 0b35 0080 9e02 0080 f53a 0000
00000170: 9618 0000 bd08 0080 8e05 0000 270a 0080
00000180: fa0f 0080 590b 0080 0645 0080 6a2e 0000
00000190: f709 0000 b118 0080 9f0a 0000 e605 0080
000001a0: b917 0080 d025 0080 121c 0080 bc1e 0080
000001b0: d037 0000 6337 0000 1b40 0000 5c06 0080
000001c0: 2637 0080 b304 0080 bb2f 0000 272d 0080
000001d0: bb20 0000 d624 0080 9133 0080 3122 0000
000001e0: bd2a 0080 ed3d 0000 b847 0080 ad43 0000
000001f0: 4115 0080 c40d 0000 761f 0000 7841 0000
00000200: 0714 0000 3704 0000 cf07 0000 e748 0000
00000210: 1e1d 0000 9e36 0080 1c12 0000 4b21 0080
00000220: f90b 0000 fe0f 0080 953d 0080 8a41 0000
00000230: 6408 0000 d227 0000 a82a 0080 e562 0000
00000240: 0317 0080 1420 0080 0e1c 0000 032d 0000
00000250: bd18 0000 8a0c 0080 b427 0080 0322 0080
00000260: f712 0000 6127 0000 8312 0000 3a12 0000
00000270: db2a 0000 9219 0080 a52f 0080 0131 0000
00000280: 101f 0000 3120 0080 111a 0080 662f 0000
00000290: 4210 0000 313b 0080 a702 0080 0e3d 0080
000002a0: 581b 0080 5a31 0000 a832 0080 7413 0080
000002b0: 221e 0080 f32d 0080 7a0f 0000 c941 0000
000002c0: 9607 0000 f323 0080 622b 0000 0e1c 0080
000002d0: 7507 0000 a95b 0000 872d 0080 8825 0080
000002e0: 2914 83ae 444c 882f 13f0 82ad 65aa e82f
000002f0: 10ae c3b0 fba4 5030 15de 66b0 4c9b 13b0
00000300: 5e87 69ae 5c9d 872f 3b33 18a9 55a6 e42f
00000310: 0e4d c2b0 34f2 4b30 373b 51b0 5ccd 0bb0
00000320: bf53 76ae 3846 8c2f a4cf 0329 25ed e92f
00000330: 5ed9 c8b0 08d0 5b30 224e 62b0 a618 0eb0
00000340: adc5 73ae 13d6 802f 3055 f6a8 0953 d42f
00000350: d555 bfb0 a846 4130 78e2 67b0 1e7d 0db0
00000360: c8de 78ae 93d6 9e2f b27b a22d 10aa e32f
00000370: d6b4 c0b0 9e9c 4d30 bece 99b0 db33 04b0
00000380: 7235 8dbd 3304 923d 2c5b 87bd ff3b 933d
00000390: d5d8 883d 8a27 68bd 5c9d 3bb9 e785 833d
000003a0: e42a 81ae f43b 882f 3a66 1aa9 1060 e62f
000003b0: ffd3 c2b0 8e82 5030 eff0 68b0 5d4c 0eb0
000003c0: 380c 80ae cc7e 882f 41a7 19a9 288c e72f
000003d0: 2513 c3b0 b5d1 5130 eae8 44b0 a8e3 0bb0
000003e0: 53c9 80ae 301b 882f 07be 19a9 d6be e42f
000003f0: 300a c2b0 cd22 4f30 2c9f 55b0 a1b3 0ab0

fc1.weight f4 [2, 8]
2.297e-42 0.06785119 0.032427784 -2.116e-42 0.06526682 1.6929311e-38 3.8785e-41 0.10080934
4.17479e-40 -0.08623069 -0.027891183 -1.4391e-41 5.9342146e-22 1.786321e-38 1.970968e-15 -0.061572697
00000000: 6706 0000 91f5 8a3d ffd2 043d e605 0080
00000010: 9caa 853d 0858 b800 1e6c 0000 2175 ce3d
00000020: c38b 0400 b799 b0bd 0d7c e4bc 1e28 0080
00000030: c359 331c 5d83 c200 f105 0e27 a733 7cbd

fc1.bias f4 [2]
3.8210538e-07 4.0264012e-10
00000000: 2a24 cd34 8f5a dd2f

exp_avg f4 [11, 8]
8.736372e-09 4.350146e-13 -1.8068262e-08 -1.7244657e-19 2.2451603e-08 2.248401e-23 4.7423052e-07 1.7014312e-09
-4.927351e-17 -1.7687235e-16 1.3790186e-06 1.2567395e-16 -8.5926936e-13 -4.875026e-10 3.9876366e-12 9.391529e-07
-1.4772396e-20 3.5731385e-20 -4.854212e-10 1.2411893e-19 -9.046681e-18 -3.821256e-23 -5.9744815e-24 1.354058e-20
3e-45 -1.0857493e-22 3.9e-44 -9.2970204e-10 -5.9630727e-19 -4.6807173e-26 3e-45 1.075259e-31
4.5741055e-20 -8.965578e-20 2.752723e-20 -2.41199e-12 -2.9237783e-21 -1.2997507e-17 1.7778438e-26 -2.8765713e-14
4.469245e-21 -1.6146832e-19 4.2270222e-20 3.160898e-10 2.1113085e-22 -7.357097e-24 5.808648e-14 -5.2319032e-21
-8.3555715e-06 -2.2039655e-12 3.5823228e-20 -5.1762776e-09 1.9797962e-21 5.0907097e-08 2.2047106e-27 -2.7834395e-21
5.2047566e-09 -3.1132902e-31 -2.767351e-31 9.337412e-31 1.6918382e-31 -1.0729615e-34 1.4585062e-17 -5.950142e-32
8.108315e-20 -1.5844879e-19 -6.3595504e-11 -8.5546224e-20 -1.1869423e-21 1.7906537e-23 2.0329243e-26 -1.1992397e-13
6.3756598e-21 6.962042e-22 1.5304833e-21 -6.3520256e-22 5.429269e-23 -6.756296e-25 3.1613256e-13 -5.0178675e-23
-9.837564e-17 -5.5916783e-25 -1e-45 -6e-45 -2.3987268e-06 5.5962747e-15 -1.4059674e-13 -2.4985883e-23
00000000: f816 1632 36e4 f42a 8734 9bb2 c796 4ba0
00000010: 99db c032 b673 d919 bf99 fe34 cad7 e930
00000020: e53b 63a4 81eb 4ba5 b816 b935 67e4 1025
00000030: e2dc 71ab f200 06b0 704d 8c2c 191a 7c35
00000040: 7685 8b9e 98bc 281f 7b6e 05b0 a588 1220
00000050: bee1 26a3 dcc8 389a 6620 e798 3ac6 7f1e
00000060: 0200 0000 5042 039b 1c00 0000 f78d 7fb0
00000070: b4ff 2fa1 24c7 6795 0200 0000 9c93 0b0c
00000080: 8b01 581f 98b1 d39f 61fe 011f 8dba 29ac
00000090: 19ea 5c9d fec2 6fa3 b211 b014 9c8c 01a9
000000a0: e3d7 a81d cea0 3ea0 909d 471f afc5 ad2f
000000b0: d53d 7f1b 944e 0e99 93cc 8229 dda7 c59d
000000c0: e82e 0cb7 1d17 1bac a02b 291f 05db b1b1
000000d0: d496 151d f2a4 5a33 d8ac 2e13 8d4f 529d
000000e0: 86d5 b231 6810 ca8c 819c b38c 1882 970d
000000f0: f89c 5b0c fd9e 0e87 0186 8623 7a79 9a8b
00000100: c273 bf1f 3510 3ba0 16d9 8bae 85fd c99f
00000110: 9b5d b39c 702e ad19 c154 c914 bb05 07aa
00000120: 99dd f01d 316a 521c b447 e71c 6bfa 3f9c
00000130: 8c45 831a e418 5197 81f7 b12a 31a6 729a
00000140: bad6 e2a4 d70d 2d97 0100 0080 0400 0080
00000150: d0f9 20b6 86a0 c927 404c 1eaa 0da6 f199

exp_avg_sq f4 [11, 8]
7.85071e-08 2.7047893e-08 8.786819e-08 4.0282564e-09 9.10059e-08 9.056343e-10 1.6246953e-07 6.2369914e-08
4.0757255e-09 1.0014414e-14 2.0931222e-07 4.8718394e-09 2.8549e-08 5.32949e-08 3.2505117e-08 1.9034046e-07
5.3263763e-13 3.2787856e-11 5.3265893e-08 5.9009846e-12 1.41609835e-08 1.2207342e-10 9.50803e-12 7.308778e-10
2.3919778e-11 9.65326e-09 1.4531575e-09 5.7698788e-08 1.2604459e-08 7.862637e-09 8.652422e-10 5.253851e-09
3.2226806e-09 4.6891554e-13 7.3087917e-13 3.1114226e-08 4.5149413e-09 1.439695e-08 3.0851368e-09 2.220712e-08
1.4459954e-09 1.174827e-08 6.1231438e-09 5.0630597e-08 9.804072e-10 2.1739843e-12 2.3307702e-08 3.1099634e-09
3.5169361e-07 3.0875096e-08 5.2367928e-12 7.269294e-08 6.292251e-10 1.0454304e-07 1.0844323e-11 1.0845914e-11
7.275042e-08 5.3443985e-11 5.410366e-10 1.4824988e-09 5.1565743e-09 1.19709815e-11 1.4474407e-08 4.930551e-12
2.3565982e-10 3.1020586e-10 4.241545e-08 2.9510967e-09 7.812595e-09 6.7707333e-09 3.6987333e-09 2.4546067e-08
1.06202656e-08 4.3695874e-09 8.296948e-09 1.4152077e-10 3.0987621e-09 2.3499627e-09 2.6388701e-08 1.5078272e-09
1.5891564e-08 8.249569e-09 1.4810161e-09 5.243993e-10 2.421139e-07 1.9969413e-08 2.4833078e-08 9.399308e-09
00000000: bc97 a833 f256 e832 0cb2 bc33 eb68 8a31
00000010: 066f c333 59f0 7830 4973 2e34 39f0 8533
00000020: 760a 8c31 5567 3428 4ebf 6034 2765 a731
00000030: ea3b f532 5de6 6433 c19b 0b33 6360 4c34
00000040: 96ec 152b d833 102e 78c6 6433 589f cf2c
00000050: aa48 7332 9d38 062f 5c44 272d f4e6 4830
00000060: 8d66 d22d 7dd7 2532 6fb8 c730 7dd0 7733
00000070: ff8a 5832 3e14 0732 02d6 6d30 5d85 b431
00000080: ff75 5d31 edfc 032b 65b9 4d2b 74a2 0533
00000090: d821 9b31 7556 7732 4d02 5431 f9c1 be32
000000a0: 71bc c630 70d5 4932 be63 d231 ee74 5933
000000b0: 03bf 8630 05fb 182c 2e36 c832 0eb7 5531
000000c0: 67d0 bc34 879b 0433 d640 b82c 5e1b 9c33
000000d0: c8f5 2c30 2581 e033 7dc6 3e2d a7cd 3e2d
000000e0: f73a 9c33 940c 6b2e 11b8 1430 cac0 cb30
000000f0: b52d b131 8298 522d 1dab 7832 757a ad2c
00000100: 2c8e 812f 9889 aa2f 482c 3633 3ecc 4a31
00000110: 2838 0632 00a4 e831 ce2c 7e31 5fd9 d232
00000120: 6c74 3632 4c23 9631 5d8a 0e32 8e9a 1b2f
00000130: 00f2 5431 fb7c 2131 5ead e232 f43b cf30
00000140: eb81 8832 fdb9 0d32 9f8c cb30 5225 1030
00000150: e2fb 8134 3489 ab32 8450 d532 987a 2132

exp_avg f4 [11, 8]
3.1211386e-20 -4.619122e-21 1.314769e-20 8.93211e-20 3.585079e-21 -2.159881e-23 4.8674345e-14 4.5244933e-11
-4.878108e-17 -4.3981294e-12 -5.196859e-17 1.0886733e-16 -2.5529052e-18 -1.6120731e-14 -1.3144731e-24 1.2000775e-17
-3.2244458e-08 -1.1958378e-19 -9.306886e-21 2.2782187e-20 -3.084022e-22 -8.795003e-12 -7.976109e-24 2.3002101e-20
8.340553e-08 4e-45 1.4165537e-12 -1.6374003e-09 9.498523e-08 3e-45 6e-45 -6e-45
4.8486852e-20 -6.2585558e-15 5.1942674e-20 -5.3795278e-20 4.9424522e-09 6.6974165e-23 3.373974e-26 -1.980653e-21
-4.6435516e-21 2.5176704e-20 7.828367e-21 2.5472124e-20 -7.294141e-18 -4.680016e-13 -3.3609594e-11 1.4726935e-21
2.7902082e-29 -1.2525122e-18 3.179634e-29 1.294388e-13 -2.1459293e-30 1.0676313e-26 -2.4513239e-20 5.6735256e-30
-4.6991538e-38 -1.3850988e-13 -7.685651e-17 6.5923964e-14 5.916065e-39 -5.9075203e-33 1.5021558e-06 1.818151e-38
1e-45 4e-45 2.885237e-38 -1.2348628e-06 6e-45 1.8849187e-08 6e-45 -6e-45
6.1212096e-20 -7.6514426e-20 9.543924e-20 -2.0551108e-20 5.5866712e-21 5.14954e-23 4.5813732e-26 -7.7941736e-10
6.702009e-19 -3.3366143e-09 -1.7e-44 2.1935439e-16 1.4058342e-11 2.0373966e-17 6e-45 4e-45
00000000: 4064 131f 6881 ae9d 545a 781e 4be7 d21f
00000010: c270 871d 10e4 d099 b335 5b29 44fd 462e
00000020: 89f6 60a4 d4be 9aac afa9 6fa4 ee07 fb24
00000030: 045f 3ca2 e033 91a8 a567 cb97 0f60 5d23
00000040: 287d 0ab3 fb2d 0da0 57cd 2f9e f32b d71e
00000050: ee6a ba9b 2cb9 1aad c747 1a99 ab3f d91e
00000060: ad1c b333 0300 0000 ba5c c72b e70a e1b0
00000070: affa cb33 0200 0000 0400 0000 0400 0080
00000080: 02f9 641f fd7c e1a7 d74a 751f 800a 7e9f
00000090: 45d2 a931 00ef a11a 3412 2715 67a7 159d
000000a0: ad6d af9d 89c9 ed1e a9df 131e d193 f01e
000000b0: 9b8d 06a3 12bb 03ab 0ad1 13ae 128c de1c
000000c0: f97a 0d10 93d6 b8a1 023a 2110 32bc 112a
000000d0: 3519 2e8e 5777 5314 6085 e79e 4225 e60e
000000e0: a5d8 7f81 c1f2 1baa 1338 b1a4 9472 9429
000000f0: 956b 4000 8863 f589 ae9d c935 a7fa c500
00000100: 0100 0000 0300 0000 5616 1d01 90bd a5b5
00000110: 0400 0000 cde9 a132 0400 0000 0400 0080
00000120: 7188 901f 22aa b49f 7b59 e11f 8819 c29e
00000130: f80e d31d 3804 791a cedb 6215 9f3e 56b0
00000140: f3ce 4521 574a 65b1 0c00 0080 fde5 7c25
00000150: 2551 772d abea bb23 0400 0000 0300 0000

exp_avg_sq f4 [11, 8]
5.859511e-09 2.5495728e-09 2.9206262e-09 1.4772218e-10 1.0511051e-09 2.0522483e-11 2.3021654e-08 4.0947086e-08
3.074998e-09 3.278885e-08 1.3265675e-10 3.7321604e-10 2.1004088e-12 2.1367194e-08 9.336048e-14 4.497891e-09
9.663543e-08 7.6396306e-13 8.692665e-09 7.570251e-09 4.3562114e-09 3.4914358e-08 2.8084606e-09 3.4549527e-10
1.1427284e-07 1.3678542e-10 2.9746202e-08 6.2055975e-08 1.1706749e-07 4.549786e-11 5.812861e-10 7.82604e-10
3.2352135e-10 2.0109553e-08 1.0054793e-09 1.8206149e-09 7.2212025e-08 3.6426374e-12 2.837441e-09 1.6217219e-12
1.263017e-09 3.5921474e-11 1.667902e-10 7.8386514e-10 1.40204905e-08 2.7202788e-08 3.9731084e-08 1.2086803e-09
2.4250675e-09 1.2990817e-08 4.768976e-09 2.4683175e-08 1.9713746e-09 7.57709e-09 1.1210755e-08 7.551923e-11
2.371902e-09 2.4805864e-08 1.569313e-08 2.351606e-08 2.436128e-09 4.5811226e-09 2.1392785e-07 2.4435758e-09
1.16333124e-10 1.5433341e-12 3.0509246e-09 2.0357777e-07 2.1433516e-11 8.846607e-08 1.6144276e-10 1.8902479e-11
1.0118436e-09 2.4132942e-09 7.348347e-10 4.5405825e-11 1.25363305e-11 1.3533525e-09 2.0650244e-10 5.644e-08
1.2663572e-08 6.8318585e-08 1.3332634e-09 1.6570882e-08 3.648544e-08 1.4704127e-08 2.465408e-10 7.2543116e-13
00000000: ce54 c931 8f34 2f31 33b4 4831 196c 222f
00000010: 7976 9030 8684 b42d 27c1 c532 ccdd 2f33
00000020: f04f 5331 b9d3 0c33 8edb 112f 7d2d cd2f
00000030: 9acd 132c f58a b732 a73a d229 de8b 9a31
00000040: e485 cf33 5709 572b bf56 1532 510e 0232
00000050: a4ad 9531 bef4 1533 f6fe 4031 23f0 bd2f
00000060: 2866 f533 ac65 162f 9784 ff32 a243 8533
00000070: 8966 fb33 091a 482e 5fc8 1f30 dc1e 5730
00000080: 95db b12f 60bd ac32 2831 8a30 3139 fa30
00000090: fb12 9b33 f629 802c cafc 4231 b03c e42b
000000a0: 7696 ad30 fcfb 1d2e 4563 372f 9b77 5730
000000b0: c5de 7032 90ab e932 caa4 2a33 a81e a630
000000c0: 3da6 2631 382e 5f32 5bdc a331 e006 d432
000000d0: ca78 0731 652c 0232 6c99 4032 8c11 a62e
000000e0: f1fe 2231 ac14 d532 8fcd 8632 5d00 ca32
000000f0: d168 2731 fb67 9d31 0ab4 6534 d7eb 2731
00000100: bad1 ff2e 7934 d92b 6fa8 5131 0897 5a34
00000110: fd87 bc2d bcfa bd33 1982 312f 9944 a62d
00000120: 1511 8b30 1fd7 2531 65fd 4930 6ab2 472e
00000130: 9d8a 5c2d dc00 ba30 450d 632f 7068 7233
00000140: fb8e 5932 8ab6 9233 093e b730 c157 8e32
00000150: 2ab4 1c33 6f9d 7c32 8889 872f d330 4c2b

exp_avg f4 [11, 8]
-2.0612964e-12 6.851747e-16 8.50671e-12 -1.9596127e-19 -1.7143734e-21 -7.449506e-23 7.3797514e-27 1.0771508e-19
-8.47834e-08 9.789996e-17 1.6057452e-11 1.1939534e-16 3.0115047e-18 -4.4666393e-19 -1.1309726e-23 9.272281e-18
7.878237e-20 -4.9327113e-18 1.2302372e-11 -4.482877e-08 5.2410887e-21 -1.2397755e-14 -4.4844946e-14 -6.2782064e-08
1e-45 -6e-45 -2.1400198e-18 2.6814512e-19 1.3302781e-07 -2.8680194e-27 -2.7113276e-14 2.4710053e-08
8.083861e-13 2.6629377e-20 -8.78479e-21 3.9293457e-20 4.4382723e-22 -3.0550402e-07 -6.418283e-10 1.5635994e-21
3.7886966e-20 -6.48457e-20 3.7468807e-16 -1.6440847e-11 1.0718234e-08 1.0786576e-12 4.7532933e-27 -8.003374e-11
-4.615035e-08 -2.29419e-21 9.181925e-14 -2.1493218e-21 -1.1793419e-22 1.7906188e-19 -2.5206268e-28 2.1374014e-20
-5.1888697e-33 6.1382104e-33 6.3260426e-33 -7.85287e-11 9.302381e-09 6.525175e-08 -3.1918538e-18 2.4565423e-09
-4e-45 3e-45 2.056312e-39 1.5420286e-28 -4e-45 3.4569736e-19 3.0657452e-11 4e-45
-4.3866456e-12 1.5084843e-19 5.1411107e-06 3.7622417e-06 -2.9594396e-21 6.252509e-23 2.378571e-26 -4.3384472e-21
7.058e-42 -1e-45 6.96931e-19 -3.547671e-36 1.8560275e-27 -9.5204186e-08 -6e-45 -1.2670831e-11
00000000: 040d 11ac f87c 4526 d1a6 152d a959 67a0
00000010: ce88 019d 351e b49a c92b 1214 c555 fe1f
00000020: 2b12 b6b3 f0bd e124 2b3e 8d2d 49a7 0925
00000030: b735 5e22 f9d4 03a1 0dc3 5a99 1c0b 2b23
00000040: 0505 ba1f 24fc b5a2 f56c 582d c189 40b3
00000050: b300 c61d 8e56 5fa8 b4f6 49a9 ced2 86b3
00000060: 0100 0000 0400 0080 d5e7 1da2 f248 9e20
00000070: 68d6 0e34 583a 6393 f536 f4a8 fb41 d432
00000080: 5b8a 632b e281 fb1e a3f0 259e e08e 391f
00000090: 7823 061c 2704 a4b4 a76c 30b0 d248 ec1c
000000a0: 88ea 321f d21c 999f 33fe d725 7f9d 90ad
000000b0: 4b23 3832 bcce 972b 1f4c bc13 fdfe afae
000000c0: d936 46b3 1758 2d9d 32c2 ce29 ee65 229d
000000d0: dd92 0e9b 2266 5320 82c3 9f91 32df c91e
000000e0: 8789 d789 a6f8 fe09 0363 030a baaf acae
000000f0: 4ed0 1f32 8720 8c33 6a84 6ba2 f3cf 2831
00000100: 0300 0080 0200 0000 2964 1600 b079 4311
00000110: 0300 0080 4f10 cc20 39d5 062e 0300 0000
00000120: 6457 9aac 2417 3220 ce81 ac36 d27a 7c36
00000130: e39b 5f9d 282d 971a f08f eb14 e3e6 a39d
00000140: ad13 0000 0100 0080 9eb2 4d21 b7e6 9684
00000150: b60c 1313 0e73 ccb3 0400 0080 5ae8 5ead

exp_avg_sq f4 [11, 8]
3.0699187e-08 1.7636141e-08 3.4806394e-08 5.3369396e-11 3.854913e-09 7.3358397e-10 7.8266525e-12 1.1848681e-08
1.1461942e-07 3.0515324e-09 3.6951445e-08 1.3016792e-09 4.4677725e-10 1.24110935e-08 3.8426187e-09 1.554056e-10
1.1953044e-08 1.3797264e-08 3.602627e-08 1.0224306e-07 9.9266275e-09 2.1003913e-08 2.289417e-08 1.0851388e-07
1.5223543e-11 2.7000522e-11 1.3286423e-08 1.2216566e-08 1.2481676e-07 7.057034e-09 2.2118735e-08 9.2446015e-08
2.8410158e-08 3.762057e-09 6.4523475e-10 5.3378177e-09 1.1990535e-09 1.4768656e-07 5.510282e-08 1.0474757e-09
4.091096e-09 2.2691695e-09 1.7055864e-08 3.703579e-08 8.09778e-08 2.908423e-08 1.1300882e-09 4.3456183e-08
1.0276188e-07 5.9114796e-11 2.4076986e-08 1.5746662e-09 2.6543555e-12 1.2031019e-08 2.8395308e-10 1.11719265e-08
1.1631509e-09 1.6270929e-12 1.6321089e-10 4.3368694e-08 7.925317e-08 1.0926865e-07 1.3516711e-08 6.5507926e-08
7.352838e-11 1.0281845e-11 2.5381466e-09 6.5135053e-09 1.20978895e-11 1.2336829e-08 3.9366878e-08 3.2686057e-10
3.2781305e-08 1.3646231e-11 3.0160845e-07 2.7484148e-07 2.187466e-09 8.4696283e-10 6.90562e-11 7.956746e-09
2.082958e-09 2.5992162e-12 1.2683478e-08 3.5815901e-09 6.9885706e-09 1.1711787e-07 1.1060627e-09 3.612757e-08
00000000: 1dda 0333 497e 9732 097e 1533 99b8 6a2e
00000010: 2c74 8431 62a5 4930 1cb0 092d 0d8f 4b32
00000020: b124 f633 20b3 5131 8bb4 1e33 c4e6 b230
00000030: 4f9e f52f 9138 5532 0808 8431 cade 2a2f
00000040: 0b5a 4d32 0209 6d32 4ebb 1a33 b790 db33
00000050: c589 2a32 186c b432 d0a8 c432 2308 e933
00000060: 5fe8 852d c57f ed2d 4e42 6432 07e1 5132
00000070: 5f05 0634 547a f231 9dff bd32 bc86 c633
00000080: 990a f432 6743 8131 5c5c 3130 f167 b731
00000090: f2cb a430 c693 1e34 31aa 6c33 c6f6 8f30
000000a0: a991 8c31 a7ef 1b31 3e82 9232 4811 1f33
000000b0: 04e6 ad33 e6d4 f932 7251 9b30 94a4 3a33
000000c0: f1ad dc33 acfe 812e dad1 ce32 a46b d830
000000d0: 9ec8 3a2c fbb0 4e32 d81a 9c2f a7ee 3f32
000000e0: bcdc 9f30 33fe e42b c873 332f 6244 3a33
000000f0: e431 aa33 13a7 ea33 2037 6832 5dad 8c33
00000100: ccb0 a12e 50e1 342d 8c6b 2e31 66cd df31
00000110: 0dd4 542d f3f1 5332 5714 2933 89b1 b32f
00000120: 6dcb 0c33 2911 702d c0ec a134 ed8d 9334
00000130: 4f52 1631 b6cf 6830 2fdb 972e 24b2 0832
00000140: c923 0f31 51e7 362c 87e6 5932 0020 7631
00000150: 1e20 f031 3b82 fb33 1f04 9830 af2a 1b33

exp_avg f4 [11, 8]
-3.2084428e-09 9.5703904e-17 -2.91815e-10 1.0364094e-16 1.8145743e-18 -7.990491e-07 2.0678495e-11 1.3754094e-14
-2.4363411e-20 -1.8533531e-19 5.908947e-20 3.0688558e-19 -4.864281e-06 6.115363e-12 -4.944861e-10 9.385775e-12
5.9795684e-20 7.637649e-20 6.398056e-20 -1.6711827e-19 -2.46944e-06 3.808489e-23 -7.6199225e-09 4.272257e-17
-2.3603867e-11 -5.0093084e-23 -9.3183223e-07 8.063887e-15 1.3213854e-12 -1e-45 -3.5734556e-06 -2.4176294e-32
1.00359804e-10 -3.313756e-20 -3.830359e-17 -1.079535e-11 8.666174e-21 -1.5325725e-21 -1.0850089e-23 1.367932e-20
-1.6478096e-21 1.2882565e-09 -3.0232967e-14 -1.2546487e-20 -8.339026e-23 6.402426e-21 1.1316595e-27 -1.1702366e-07
1.712573e-06 -4.1326073e-20 3.6323104e-07 -8.243524e-20 -1.3452287e-21 1.917324e-23 -2.1855296e-08 -9.951501e-21
2.1740677e-19 7.624883e-15 9.042274e-24 -2.3802005e-15 4.798812e-13 4.7786505e-27 -1.1917142e-31 3.766856e-25
1.788027e-33 1.0223345e-32 -7.348421e-33 1.1156458e-24 1.7289322e-20 6.590468e-36 -1.0558556e-11 1.4440739e-33
-6.4563143e-22 5.6119863e-21 1.6762111e-21 -2.3228235e-21 4.4531422e-23 8.420195e-25 -3.8535507e-30 -2.8240595e-17
2.046194e-09 -1.4109882e-07 6e-45 -5.9576727e-10 6.113362e-14 3.7058627e-30 2.23375e-40 -4.220163e-18
00000000: 867b 5cb1 9dad dc24 4f6d a0af d0fa ee24
00000010: 57e4 0522 3c7e 56b5 d5e3 b52d 90c5 7728
00000020: 1d1b e69e 29ce 5aa0 6585 8b1f 3d27 b520
00000030: db37 a3b6 4b2a d72c 5eec 07b0 c61d 252d
00000040: 4630 8d1f c156 b41f e011 971f 664c 45a0
00000050: a8b8 25b6 cf2a 381a c6e8 02b2 e805 4524
00000060: 2f9f cfad 3c3c 729a 0623 7ab5 1d44 1128
00000070: edf7 b92b 0100 0080 80cf 6fb6 9d0f fb8a
00000080: 8cb1 dc2e da7c 1c9f e6a4 30a4 efe9 3dad
00000090: 0cb3 231e 8798 e79c 0adf 5199 9132 811e
000000a0: 8c02 f99c 7f0e b130 3d28 08a9 17ff 6c9e
000000b0: 12a0 c99a 77e0 f11d 9051 b312 704e fbb3
000000c0: 8fdb e535 2828 439f 1802 c334 0ca5 c29f
000000d0: 0449 cb9c a56e b919 4ebc bbb2 82fa 3b9e
000000e0: 9555 8020 915b 0928 2ce7 2e19 f382 2ba7
000000f0: 1613 072b 464d bd13 7fb1 1a8c 3728 e916
00000100: 218b 1409 a054 540a e89e 188a 49a3 ac17
00000110: 044b a31e ec29 0c05 82bf 39ad 1cf0 ef08
00000120: 5021 439c cd03 d41d 474d fd1c f181 2f9d
00000130: 3b57 571a d44b 8217 8f51 9c8e 9c3c 02a4
00000140: 079d 0c31 f380 17b4 0400 0000 65c3 23b0
00000150: 22a9 8929 e153 960e ae6e 0200 50b2 9ba2

exp_avg_sq f4 [11, 8]
6.794831e-08 1.5693655e-09 5.016258e-08 2.4005564e-10 4.3275522e-11 1.8312954e-07 3.7866965e-08 2.1145132e-08
4.9891086e-10 3.6780017e-09 1.1854919e-09 1.2552595e-08 2.9658491e-07 3.3771588e-08 5.3385925e-08 3.512589e-08
3.3889402e-10 4.3556662e-13 3.4495737e-09 7.4655954e-10 2.4404636e-07 1.8844264e-10 7.692267e-08 1.5234033e-08
3.836031e-08 9.509396e-09 1.899814e-07 2.0433065e-08 2.9574862e-08 5.6344634e-11 2.7077178e-07 5.3061444e-09
4.4521382e-08 1.8532134e-09 1.5157e-08 3.558684e-08 1.43532694e-11 1.02944036e-08 8.736238e-09 9.191759e-11
6.303695e-10 6.014828e-08 2.2282153e-08 1.0271764e-08 2.455315e-10 1.07364455e-08 1.7087033e-10 1.2177748e-07
2.2130178e-07 3.895554e-09 1.5325058e-07 1.2871427e-09 4.912598e-09 4.3699733e-09 9.0607614e-08 6.1753447e-10
1.2119321e-08 2.036076e-08 9.0191286e-09 1.8955143e-08 2.725625e-08 1.547188e-09 3.567073e-09 1.6163124e-10
2.679295e-09 7.9402473e-10 1.1104253e-09 8.417302e-09 1.1081659e-08 2.9853852e-11 3.551313e-08 6.337333e-11
2.777939e-09 1.0868252e-08 8.207159e-09 7.88993e-09 4.0775254e-09 9.359931e-10 3.2372371e-10 1.493568e-08
6.391604e-08 1.2625269e-07 8.0272226e-11 5.4603664e-08 2.3391502e-08 5.751967e-09 2.405888e-09 1.3682712e-08
00000000: faea 9133 24b1 d730 5772 5733 d4f8 832f
00000010: e853 3e2e 44a2 4434 2ba3 2233 a3a2 b532
00000020: bb23 0930 17c0 7c31 caee a230 e6a6 5732
00000030: 523a 9f34 410c 1133 724a 6533 53dd 1633
00000040: 184f ba2f c433 f52a 8b0d 6d31 7536 4d30
00000050: 7a05 8334 e331 4f2f af30 a533 fedb 8232
00000060: 9bc1 2433 c45e 2332 b1fd 4b34 c984 af32
00000070: cf0b fe32 6bce 772e 975e 9134 5751 b631
00000080: c737 3f33 26b4 fe30 9832 8232 25d8 1833
00000090: 6181 7c2d 44db 3032 6216 1632 0121 ca2e
000000a0: 4f46 2d30 de2a 8133 f966 bf32 b277 3032
000000b0: 7dfb 862f 6373 3832 b9df 3b2f f0c1 0234
000000c0: f89e 6d34 a8d9 8531 338d 2434 4fe7 b030
000000d0: abcb a831 b126 9631 1094 c233 20bf 2930
000000e0: 5635 5032 c9e5 ae32 8cf2 1a32 cdd2 a232
000000f0: 2121 ea32 d7a4 d430 9d20 7531 26b7 312f
00000100: a81e 3831 8642 5a30 9e9d 9830 b09b 1032
00000110: a761 3e32 734c 032e 1987 1833 035c 8b2e
00000120: 05e6 3e31 14b7 3a32 78ff 0c32 478c 0732
00000130: 4b1a 8c31 54a4 8030 10f8 b12f e84b 8032
00000140: 3742 8933 1390 0734 3f85 b02e 5d85 6a33
00000150: 75ee c832 d6a2 c531 d454 2531 3411 6b32
