backend/pretrain/case2/pretrain_semi_0.ckpt (torch, 68597 bytes, 135 tensors)

sparse_emb.0.weight f4 [11, 8]
0	0xbdb92396	-0.090399906
1	0x399b8075	0.00029659612
2	0x3efcee8a	0.4940074
3	0x3f72b334	0.9480469
4	0x36cc33f3	6.0857215e-06
5	0xbef7dddf	-0.48411462
6	0xbe07aa7c	-0.13248628
7	0x3eebb4df	0.4603643
8	0x3ad7f9b1	0.0016477612
9	0x3f1b3c3c	0.60638785
10	0x3bb0e595	0.005398462
11	0x3562c31e	8.4475494e-07
12	0xbcc3dad7	-0.023908062
13	0xbd0e3e81	-0.034727577
14	0xbf529697	-0.8226103
15	0xbf93b9ff	-1.1541137
16	0xbe6103f5	-0.21974166
17	0x371cd8d0	9.348805e-06
18	0x3a17af50	0.00057863165
19	0xbda77914	-0.08177391
20	0x38a30ce9	7.7748504e-05
21	0x3f0393c1	0.5139733
22	0x3f3cd986	0.73769414
23	0xbe88740e	-0.26651043
24	0xb520bbfc	-5.98782e-07
25	0x3f26860d	0.65048295
26	0xbd0d6d04	-0.034527794
27	0x3f033f6a	0.5126864
28	0xbf35e154	-0.7104695
29	0x3eb85767	0.36004183
30	0x3e066275	0.13123496
31	0x3f5c1d32	0.8598205
32	0x3e8b5c50	0.27218866
33	0xbf4be8be	-0.7965201
34	0xbeda7b97	-0.42672417
35	0xbfb09b8e	-1.3797472
36	0x3e58f666	0.21187744
37	0x3e59dcce	0.21275637
38	0x3f8ee4ae	1.1163538
39	0x3fd19839	1.637458
40	0xbc08e669	-0.008355715
41	0x3639b105	2.7670187e-06
42	0x3eb1d387	0.34731695
43	0xbe57170d	-0.21004887
44	0x34fadf9b	4.6728823e-07
45	0x3c293d8c	0.010329615
46	0xbd5be1c8	-0.05368212
47	0x3f912074	1.1338029
48	0x3de1553b	0.110025845
49	0x3ec5d8c5	0.38641945
50	0x3f46cf7c	0.77660346
51	0xbf2658b7	-0.6497912
52	0x3f3f027e	0.7461318
53	0xbf0867fb	-0.5328366
54	0xbc3685ac	-0.011140268
55	0xbf925e41	-1.1435014
56	0x3ef22114	0.47290862
57	0x3d37fd7c	0.044919476
58	0xbe59dddf	-0.21276043
59	0x3f473e64	0.77829576
60	0x3f7bb7bd	0.9832724
61	0x3c80444f	0.015657572
62	0x3ef24443	0.47317705
63	0xbe8ed43a	-0.2789629
64	0xc0253498	-2.581335
65	0xbf390739	-0.72276646
66	0xbdd2d37e	-0.10294245
67	0xbf32ca75	-0.69840175
68	0x3ead9749	0.33904484
69	0xb690b4c9	-4.3125806e-06
70	0x3d1e7339	0.038684104
71	0x3cd8f0e3	0.026482051
72	0x3d37da4a	0.04488591
73	0xbf7e1971	-0.9925757
74	0xb9c60a7c	-0.00037773314
75	0x36b9c22e	5.536035e-06
76	0x3fa5981a	1.2937043
77	0xb9bcd11f	-0.00036013962
78	0x3d3697f4	0.044578508
79	0xbdea72f6	-0.11447708
80	0xbf3713cb	-0.71514577
81	0x3e837a44	0.2567922
82	0xbe31c096	-0.17358622
83	0x3f5516eb	0.83238095
84	0xb3f1d55c	-1.1261247e-07
85	0x3f5d7228	0.86502314
86	0xbd044ad7	-0.032297935
87	0x3f10aeca	0.56516707

sparse_emb.1.weight f4 [11, 8]
0	0xbdb46a6c	-0.08809361
1	0x3f5bdc04	0.8588259
2	0xbf82b5c1	-1.0211717
3	0xbf378706	-0.71690404
4	0x3f02d009	0.51098686
5	0x3eb10178	0.34571433
6	0x3a00a2c8	0.0004907069
7	0x3c29e66e	0.01036988
8	0x3f766416	0.9624647
9	0xbe460c05	-0.19340523
10	0x3fb81593	1.4381584
11	0x3be87c08	0.007094864
12	0x35b9f95a	1.3856145e-06
13	0xbc2acd4e	-0.010424925
14	0xbdfea273	-0.124333285
15	0xbef1d0da	-0.47229654
16	0x3f92c7a0	1.1467171
17	0x3e807202	0.2508698
18	0x3fbb543b	1.463508
19	0x388137f0	6.1616185e-05
20	0x3e59c94a	0.21268192
21	0xbd8abe2f	-0.06774556
22	0x3ff9262b	1.9464773
23	0xbd91ab9a	-0.071128085
24	0xbfbf66e8	-1.495328
25	0x3f6e8aa8	0.9318032
26	0x3d487b7f	0.0489459
27	0xbf9e33aa	-1.2359517
28	0x351ea914	5.910563e-07
29	0x3dc5ad01	0.096521385
30	0xb6d8c340	-6.4600317e-06
31	0xba2649e5	-0.00063434086
32	0xbf6fdfc7	-0.9370083
33	0x34debd91	4.148865e-07
34	0x3e05c9a4	0.13065201
35	0xba0e91b9	-0.00054385845
36	0x3f10cc69	0.56561905
37	0x3ea00be2	0.31259066
38	0xbe7bd25e	-0.24591967
39	0x3fa59813	1.2937034
40	0xbf0689c2	-0.5255395
41	0xbfccf25b	-1.6011461
42	0x3dbc4c75	0.091942705
43	0xbf9b1a6c	-1.2117438
44	0xb40d8f66	-1.3183816e-07
45	0xbf791fd7	-0.9731421
46	0x3e7c2bf4	0.24626142
47	0x3f007f11	0.5019389
48	0xb79b5e0d	-1.8521236e-05
49	0x3ec110ab	0.3770803
50	0x3c9bab94	0.019002713
51	0x3c036c38	0.008021407
52	0xbf633bc0	-0.88763046
53	0x37d3dc8f	2.5255866e-05
54	0x3f57d17d	0.8430403
55	0xbed93c82	-0.42428976
56	0x3eb78cc9	0.35849598
57	0x3f2881f8	0.65823317
58	0xb729cde3	-1.0121122e-05
59	0xbf071378	-0.5276408
60	0xba3907bc	-0.00070583425
61	0xbf91f380	-1.1402435
62	0x3ee761be	0.4519176
63	0x35825db1	9.713023e-07
64	0xbec8d24c	-0.39222944
65	0x3f4f12cd	0.8088806
66	0xbea11596	-0.3146178
67	0x3ca3079c	0.01990109
68	0x3ed698e0	0.4191351
69	0x3f14d556	0.58138025
70	0xbe50b491	-0.2038138
71	0xb5254df9	-6.1580755e-07
72	0x36653c4b	3.4158754e-06
73	0x35dd7779	1.6500554e-06
74	0xbf47c47d	-0.7803419
75	0x3c8a42b6	0.016877513
76	0x36d7a1c4	6.4263313e-06
77	0x3f171915	0.5902265
78	0x36460dde	2.951237e-06
79	0x3e564d82	0.20928004
80	0xbff7b88c	-1.9353194
81	0x377e0a6d	1.5142007e-05
82	0x3f50c02a	0.8154322
83	0xbf1c3d1e	-0.6103076
84	0x37c50be5	2.3489769e-05
85	0xbd279d2a	-0.040921368
86	0xbf858369	-1.0430728
87	0x3f433aae	0.76261413

sparse_emb.2.weight f4 [11, 8]
0	0xbeb30a98	-0.3496902
1	0xbf59bb3d	-0.8505133
2	0xbf07cefd	-0.53050214
3	0xbdd33440	-0.103127
4	0x351363ba	5.490689e-07
5	0xbedca75a	-0.4309643
6	0x3ffca7bd	1.973869
7	0x3f82c09c	1.021503
8	0xbdb9c784	-0.09071258
9	0x3d0364b7	0.03207847
10	0x3edcd65e	0.431323
11	0xbf83d68e	-1.0299852
12	0xbea5cea5	-0.3238422
13	0xbe163a2f	-0.14670633
14	0xbe8acd17	-0.27109596
15	0xbfaff7ab	-1.3747457
16	0xbffd6c53	-1.9798683
17	0xbec586da	-0.38579446
18	0xb633b18b	-2.6776422e-06
19	0x3eb88a6e	0.36043113
20	0xbc757947	-0.014982528
21	0xb6d34368	-6.296137e-06
22	0xb81a4428	-3.6779937e-05
23	0x36d64e94	6.3868447e-06
24	0x35dc77c9	1.6426139e-06
25	0xbf5478a4	-0.82996583
26	0x3f77e8db	0.96839684
27	0xbc72f96b	-0.014829974
28	0xbee3f83a	-0.4452532
29	0xbfbffbaa	-1.4998677
30	0x3828631c	4.0146624e-05
31	0x3f59e154	0.8510945
32	0xb8ad8ec8	-8.275878e-05
33	0x3e11d919	0.14242972
34	0xbf33349e	-0.7000216
35	0x3edf416e	0.43604606
36	0xb8738aeb	-5.8065092e-05
37	0x362c8047	2.5704664e-06
38	0x3e8669b1	0.2625251
39	0x3df4d2a8	0.11954242
40	0xbe474abd	-0.19462104
41	0xbf6f78e3	-0.93543833
42	0x3f557046	0.8337444
43	0x3592abe7	1.0927878e-06
44	0x3f32998f	0.6976556
45	0x3e7e6909	0.24844755
46	0xbf95a640	-1.169136
47	0x3f97e626	1.1867111
48	0x3f8ee586	1.1163795
49	0xbca82210	-0.020524055
50	0xbea84393	-0.32864055
51	0xb81cfa63	-3.742649e-05
52	0xb6382ffa	-2.7446063e-06
53	0xbf3bd991	-0.73378855
54	0xb6c5437c	-5.8789137e-06
55	0x3f770beb	0.9650256
56	0x3cce1b77	0.02515958
57	0x358e19c2	1.0587321e-06
58	0x3f82745d	1.0191761
59	0x3ed6b06e	0.4193148
60	0x3efc6b61	0.49300674
61	0x3ec96e08	0.3934176
62	0x3f7ed3cb	0.9954192
63	0x3e6431ef	0.22284673
64	0xbd23fe2a	-0.04003731
65	0x3f132943	0.57484835
66	0x3e44aa3f	0.19205569
67	0x3f8f37ef	1.1188945
68	0xb8b0e196	-8.434353e-05
69	0xb62d1493	-2.5790985e-06
70	0x3c3e4799	0.01161375
71	0x3e917f8a	0.28417617
72	0xbed1ad50	-0.4095254
73	0xbdbf9468	-0.09354478
74	0xbe76e797	-0.24111782
75	0x3ada23e6	0.0016642779
76	0xbdf5cb97	-0.12001722
77	0x3e313469	0.17305149
78	0xbf8d1e91	-1.1024953
79	0xbf0db99f	-0.5536136
80	0xbb8d4127	-0.0043107453
81	0x3f24681c	0.6422136
82	0xbf865ed2	-1.0497687
83	0xbeb8a17c	-0.36060703
84	0x3d5a7396	0.053332888
85	0xbba2e326	-0.004970926
86	0xbcf50d6c	-0.029913627
87	0x3f30a818	0.6900649

sparse_emb.3.weight f4 [11, 8]
0	0x3e34dc21	0.17662098
1	0x3eeea694	0.46611464
2	0xbe18f2f8	-0.14936435
3	0x3d6ca07c	0.057770237
4	0x3f8bf4be	1.0934064
5	0x386aa559	5.594394e-05
6	0xbdc966e0	-0.09834075
7	0x3f048f4a	0.5178114
8	0xbd8ef8f9	-0.069810815
9	0xbb296869	-0.0025849587
10	0xbd57210a	-0.052521743
11	0x3e9153e3	0.28384313
12	0xbfdd66ff	-1.7297057
13	0x3ec5dfe4	0.38647377
14	0xbf996a13	-1.1985496
15	0xbf349224	-0.7053549
16	0xbf8487ea	-1.0353978
17	0xbefaff44	-0.49022877
18	0xbf18ff86	-0.597649
19	0xbf039c93	-0.5141079
20	0xbe542526	-0.20717296
21	0x3f1c259c	0.6099489
22	0xbfaffdb6	-1.3749301
23	0xbf2fb26c	-0.68631625
24	0x36958a2d	4.456632e-06
25	0x3b95ed80	0.0045754313
26	0x3e27bf5a	0.16381589
27	0x3cce2878	0.025165781
28	0x3a51f226	0.00080088
29	0xbbe37a1d	-0.0069420473
30	0x3e371353	0.17878465
31	0x331c31c2	3.6366835e-08
32	0x3e55d90c	0.20883578
33	0x3efec89a	0.49762422
34	0x3e6b3caf	0.22972368
35	0xbf84c6e4	-1.0373197
36	0xbe395633	-0.18099289
37	0x3eca5409	0.3951724
38	0x3f87cf23	1.0610088
39	0x3f9d36f9	1.2282401
40	0xbd130595	-0.035893995
41	0x3e5e22e8	0.21693003
42	0x3f2c801e	0.6738299
43	0xbe8016e8	-0.25017476
44	0xbf8a7223	-1.0816082
45	0x3e2008cf	0.1562836
46	0x3db51245	0.08841375
47	0x3ee5a2df	0.44850823
48	0xbfb64f43	-1.4242939
49	0x3e82c52f	0.25541064
50	0x3e7be1b8	0.24597824
51	0xbde3f267	-0.11130219
52	0x3f16db91	0.5892878
53	0x3f91649f	1.1358832
54	0x3e9d20d7	0.30689117
55	0x380edd4a	3.406153e-05
56	0x3f13387f	0.5750808
57	0xb8ac0660	-8.2027866e-05
58	0x3943a417	0.00018657777
59	0xbbb86ba6	-0.005628067
60	0xb6761e35	-3.667444e-06
61	0x39b6740b	0.00034800204
62	0xb454ad7e	-1.9807155e-07
63	0xbdf0203d	-0.11724899
64	0x3ec11723	0.37712964
65	0x3fd6b891	1.6775075
66	0xbddedd43	-0.10882046
67	0x3c6293cc	0.013829183
68	0x38904281	6.8788424e-05
69	0xbf7c6be3	-0.9860212
70	0xbea5ad08	-0.32358575
71	0x3ee55063	0.44787893
72	0xb6940b10	-4.4120316e-06
73	0xbda07f1f	-0.078367464
74	0xbef3ee77	-0.47642872
75	0xb70aee3c	-8.280909e-06
76	0xbfe5e32c	-1.7959952
77	0xb567cb70	-8.6350246e-07
78	0x3fb038bd	1.3767315
79	0x3c81af41	0.015830638
80	0x3ece8f3a	0.40343648
81	0x3f0529cd	0.5201691
82	0x3b5427ff	0.0032372472
83	0xbfc41a9d	-1.5320622
84	0x372c9e36	1.0288835e-05
85	0x38a8789c	8.0333295e-05
86	0x3eb0eb13	0.34554347
87	0x372d6f91	1.033758e-05

sparse_emb.4.weight f4 [11, 8]
0	0x3b8a5318	0.0042213313
1	0xbf19d18e	-0.6008538
2	0x3a9476ac	0.0011326871
3	0x3928be4b	0.00016092618
4	0x3f1a85c3	0.60360354
5	0x38b12833	8.4475054e-05
6	0x40010d69	2.0164435
7	0x3f330d70	0.6994238
8	0x3c44789e	0.011991648
9	0x37f4c77b	2.9179957e-05
10	0xb6c0135c	-5.7242996e-06
11	0x3fb86cb1	1.440817
12	0x3e24c8ad	0.16092177
13	0x36d66a99	6.3901066e-06
14	0x39feb965	0.00048584785
15	0x3debc1d1	0.11511577
16	0xbf049810	-0.5179453
17	0xb674d2da	-3.6481565e-06
18	0x3d43e5bc	0.047826514
19	0x34d55e17	3.97428e-07
20	0x3c57f72a	0.013181487
21	0xc01283e7	-2.2893007
22	0x350a8d5b	5.1614705e-07
23	0x3ed9b26a	0.42518932
24	0xbf68701d	-0.9079607
25	0xbeb6e6dd	-0.3572301
26	0x36cac5e7	6.043108e-06
27	0xbf4dd53e	-0.80403507
28	0x3d1efd59	0.03881583
29	0xbd7c6de7	-0.06162825
30	0x3fb6fa5b	1.4295152
31	0x3f811f12	1.0087607
32	0x3f3fe3a7	0.74956745
33	0xb699c1b1	-4.582304e-06
34	0xbf506729	-0.8140741
35	0xbf3d9c60	-0.74066734
36	0xbd22b382	-0.039721973
37	0x3ab27bc5	0.0013617208
38	0x3e13e03c	0.14441007
39	0xbd26ffd2	-0.040771313
40	0x3c62cd50	0.013842896
41	0x3ea0d03a	0.31408864
42	0xbe0197e4	-0.12655598
43	0xbe90301a	-0.281617
44	0x3dc70e77	0.09719556
45	0x3c13a77e	0.009012101
46	0xbf147ec5	-0.58005935
47	0xbd5fab50	-0.054606736
48	0x3e93b57f	0.28849408
49	0xbe386037	-0.18005453
50	0x3e400a70	0.18753982
51	0xbdaffdbb	-0.08593317
52	0xbff3fdfa	-1.9061882
53	0xbcfcb890	-0.030849725
54	0x3f846fdc	1.0346637
55	0x3eddca20	0.43318272
56	0xbf2f0a1d	-0.68374807
57	0x3f83f62b	1.03095
58	0xbf149b7f	-0.5804977
59	0xbf13c9e2	-0.57729924
60	0x3e7c6c6b	0.24650733
61	0x3de3b2c1	0.11118079
62	0xbf7c032a	-0.9844233
63	0x3c0d81e9	0.00863693
64	0x3f4545f7	0.7705988
65	0x3efc2692	0.49248177
66	0x3eb9b883	0.36273584
67	0xbeefa838	-0.46808028
68	0x3fb31f7a	1.3993981
69	0xbf9bef2b	-1.2182363
70	0xbf21382d	-0.6297634
71	0x3fa5dbe7	1.2957734
72	0x39949a0f	0.00028343542
73	0xbfd3ad2c	-1.6537223
74	0xb3f42abe	-1.136991e-07
75	0x35571ea0	8.0138307e-07
76	0xbcfc1a2e	-0.030774202
77	0x359137f6	1.0819629e-06
78	0xbf16adb6	-0.5885881
79	0xbf37e076	-0.71826875
80	0xba2f51dd	-0.0006687919
81	0xbdc4123c	-0.095737904
82	0xbe3f9335	-0.18708499
83	0x3eec908b	0.46204028
84	0x3ed995e0	0.42497158
85	0xbba52bc1	-0.0050406163
86	0xbdb1eef7	-0.08688157
87	0xbece7732	-0.40325314

dense_emb.0.weight f4 [8, 1]
0	0x3d43ce6d	0.047804285
1	0xbe9e13ff	-0.3087463
2	0x3f35d0a0	0.7102146
3	0x3f4a7110	0.7907877
4	0xbc48272c	-0.012216371
5	0x3f5baa90	0.8580713
6	0x3e5fcbe3	0.2185512
7	0xbef2a2d9	-0.47389868

dense_emb.0.bias f4 [8]
0	0xbc46b56e	-0.012128217
1	0x3dfc1ff3	0.12310781
2	0xbe85b2ba	-0.2611292
3	0x3d782ff7	0.060592618
4	0xb479365a	-2.3209705e-07
5	0xbede49f5	-0.434158
6	0xb6edf11b	-7.091219e-06
7	0x3713bbdc	8.805622e-06

dense_emb.1.weight f4 [8, 1]
0	0xbe13c3f8	-0.14430225
1	0xbeea2303	-0.45729837
2	0x3f321ed4	0.6957829
3	0x3f1c2915	0.61000186
4	0x3e0bab44	0.13639551
5	0xbd02caee	-0.03193181
6	0xbec50780	-0.38482285
7	0x3e591c1b	0.21202128

dense_emb.1.bias f4 [8]
0	0x3e34f3b3	0.17671089
1	0x36859413	3.980947e-06
2	0xbe1532b3	-0.14570121
3	0xbe8117b6	-0.25213403
4	0xbeaa5e68	-0.3327515
5	0xbe7b4d3c	-0.24541181
6	0xb70533a7	-7.939444e-06
7	0xbea0d9f8	-0.31416297

dense_emb.2.weight f4 [8, 1]
0	0x3ea4fc53	0.32223758
1	0x3e79dde6	0.24401054
2	0x3f1da131	0.61574084
3	0x3eaddbb3	0.3395668
4	0xbf195200	-0.5989075
5	0x3ea81675	0.32829633
6	0x3f22251e	0.63337886
7	0xbf31526b	-0.69266385

dense_emb.2.bias f4 [8]
0	0xbeac3d24	-0.33640397
1	0xbd38bb29	-0.045100365
2	0xbebc87b6	-0.3682229
3	0x36a1648a	4.809878e-06
4	0xbeed32f5	-0.4632794
5	0x3d820d61	0.06350208
6	0xbe9b6877	-0.30353138
7	0x3ee4ef16	0.44713658

dense_emb.3.weight f4 [8, 1]
0	0xbee4f878	-0.44720817
1	0x3ecf3aa8	0.4047444
2	0x3f3b973f	0.7327766
3	0x3ebadb22	0.3649531
4	0xbf2a7123	-0.6657888
5	0x3e5769ac	0.21036404
6	0xbebb5221	-0.36586097
7	0xbeaa5b47	-0.33272764

dense_emb.3.bias f4 [8]
0	0x3a0044de	0.00048930745
1	0x3d05408b	0.032532256
2	0x3ad29574	0.0016066269
3	0x3d869756	0.06571834
4	0x3e4a6064	0.19763333
5	0x3e8844ff	0.2661514
6	0xbe7562a1	-0.23963405
7	0xbd444342	-0.047915705

dense_emb.4.weight f4 [8, 1]
0	0xbf008e12	-0.5021678
1	0xbe710741	-0.23537923
2	0xbf423138	-0.7585635
3	0xbe04fe41	-0.12987615
4	0xbf19999f	-0.6000003
5	0x3f69a615	0.91269046
6	0xbe07aba0	-0.13249063
7	0x3f34067a	0.7032238

dense_emb.4.bias f4 [8]
0	0xbeaaa816	-0.33331364
1	0x3de78752	0.11305107
2	0x38f47d83	0.00011658205
3	0x3e9cde4c	0.3063835
4	0xbbe1323e	-0.0068724444
5	0x3c0ac6b5	0.008470227
6	0x3ce98ec9	0.028510468
7	0x3eda32d4	0.42616904

dense_emb.5.weight f4 [8, 1]
0	0xbf75de9c	-0.960428
1	0x3f4ea23f	0.8071632
2	0x3da3254a	0.07966097
3	0xbeab3223	-0.3343669
4	0x3ecdd6ba	0.40202886
5	0x3f57ad5a	0.8424889
6	0x3f4df9b2	0.8045913
7	0x3d7faa9b	0.06241856

dense_emb.5.bias f4 [8]
0	0xbeefd08e	-0.46838802
1	0x37c06c80	2.2938708e-05
2	0x3e60c41d	0.21949811
3	0xb6dd307b	-6.591957e-06
4	0xbee576cb	-0.44817194
5	0x3dfdfbe9	0.12401564
6	0x3d937bd9	0.072013564
7	0x3ec05912	0.37567955

dense_emb.6.weight f4 [8, 1]
0	0x3f68bb4d	0.909108
1	0xbe26bf9e	-0.16284034
2	0x3f0eaea7	0.5573525
3	0xbef106a0	-0.47075367
4	0x3f344437	0.7041659
5	0xbf0fd3de	-0.5618266
6	0xbf7874f3	-0.9705345
7	0xbf2f928b	-0.6858298

dense_emb.6.bias f4 [8]
0	0xbea3c1d5	-0.3198382
1	0xbd3c373e	-0.04595112
2	0xbb88bfac	-0.0041732397
3	0x38830705	6.247874e-05
4	0x3b82f6f5	0.0039967247
5	0x3e4362bd	0.19080634
6	0xbc02d3ba	-0.00798505
7	0x3e39dda6	0.18150958

dense_emb.7.weight f4 [8, 1]
0	0x3ead6d71	0.3387256
1	0x3dd167d8	0.10224885
2	0x3e0cbf4a	0.13744846
3	0x3f639bf9	0.8890987
4	0x3f363d00	0.7118683
5	0xbc936090	-0.01799038
6	0xbef7fe06	-0.48435992
7	0x3f67cae5	0.9054397

dense_emb.7.bias f4 [8]
0	0xbd969f34	-0.07354584
1	0x3ccc0205	0.024903307
2	0xbea1656e	-0.31522697
3	0xb5bf4f2b	-1.425365e-06
4	0xbe63c321	-0.22242405
5	0xbe008700	-0.12551498
6	0xbe0912ce	-0.1338608
7	0xbd2995f1	-0.04140276

dense_emb.8.weight f4 [8, 1]
0	0xbf725aaa	-0.9466959
1	0xbddca45c	-0.107735366
2	0xbe80d148	-0.2515967
3	0x3f1da16d	0.6157444
4	0xbdfc98c9	-0.12333829
5	0xbe7a11a7	-0.24420796
6	0xbf44f367	-0.769339
7	0xbe8d34eb	-0.27579436

dense_emb.8.bias f4 [8]
0	0x3e226df3	0.15862255
1	0xbed396b4	-0.41325915
2	0xbdee9a96	-0.11650579
3	0x3eb25759	0.34832266
4	0x3ec4f5da	0.3846882
5	0x3b88089b	0.0041514165
6	0x3e87878e	0.26470608
7	0x3eac98ff	0.33710477

dense_emb.9.weight f4 [8, 1]
0	0x3f2c6c52	0.67352784
1	0x3e97f51d	0.29679194
2	0x3e216c5a	0.15763989
3	0x3ddb185c	0.106980056
4	0xbf42f9be	-0.76162326
5	0x3f6364bf	0.888256
6	0x3f512938	0.8170352
7	0x3e20ba08	0.15695965

dense_emb.9.bias f4 [8]
0	0xbf1c83b9	-0.6113849
1	0x3e54f7e0	0.20797682
2	0xbf3adfe7	-0.729979
3	0x3ebc860a	0.36821014
4	0xbf187553	-0.5955402
5	0xbed6a967	-0.4192612
6	0xbedef545	-0.435465
7	0xbe84c564	-0.25931847

dense_emb.10.weight f4 [8, 1]
0	0xb8bcce84	-9.003005e-05
1	0xbee22569	-0.44169167
2	0x3b684c09	0.003544571
3	0x3ddde9db	0.1083562
4	0xbabcd523	-0.0014406781
5	0x3e9d669f	0.30742356
6	0x3d67b364	0.056567565
7	0x3d982e9d	0.07430766

dense_emb.10.bias f4 [8]
0	0x3dae6441	0.08515216
1	0xbd2740db	-0.040833335
2	0xbcc30dc4	-0.023810275
3	0x3b2cbc86	0.0026357486
4	0xbec8ea59	-0.39241293
5	0x3e50dfd7	0.20397888
6	0x3ed2fbb3	0.41207656
7	0x3ce14c76	0.02750228

dense_emb.11.weight f4 [8, 1]
0	0xbe75b7cb	-0.23995893
1	0x3da575d8	0.080791175
2	0xbe6c92da	-0.23102894
3	0x369b8523	4.634859e-06
4	0xbcd3b80b	-0.025844594
5	0xb86a2958	-5.5828452e-05
6	0xb7b10485	-2.1102149e-05
7	0x3ed35205	0.41273513

dense_emb.11.bias f4 [8]
0	0x3eace4ec	0.33768404
1	0xb8e2d164	-0.00010815522
2	0xbeb41683	-0.35173425
3	0xbe5fed2c	-0.21867818
4	0x3e4de4a5	0.20106752
5	0xbec18e7c	-0.3780402
6	0x3e841025	0.25793567
7	0x3c21b78c	0.009870421

dense_emb.12.weight f4 [8, 1]
0	0x3ea2c9d0	0.31794596
1	0x3e784046	0.24243268
2	0xb7b16ad2	-2.1149786e-05
3	0xbd9cb9c0	-0.076526165
4	0x3e39cb2b	0.18143909
5	0xbde35cb5	-0.11101667
6	0xb8a697b0	-7.943751e-05
7	0xbd017306	-0.031603836

dense_emb.12.bias f4 [8]
0	0x36a28bd2	4.8442535e-06
1	0xbe650214	-0.22364074
2	0x35a505eb	1.229518e-06
3	0xbe2a298c	-0.16617411
4	0x3e2d6f9e	0.1693711
5	0xbd2a7137	-0.041611876
6	0x3c4af66e	0.012387855
7	0xbee77706	-0.45207995

dense_emb.13.weight f4 [8, 1]
0	0xbc8c0c74	-0.017095782
1	0xbefa7090	-0.48914003
2	0x3ceb013c	0.028687112
3	0xb762848f	-1.3501513e-05
4	0x369a0857	4.5905285e-06
5	0xb721e7d4	-9.6503245e-06
6	0x39919b80	0.00027772412
7	0x3edacf9e	0.42736524

dense_emb.13.bias f4 [8]
0	0xb4b41910	-3.3545848e-07
1	0xbe8169d3	-0.2527605
2	0xbe75d85f	-0.2400832
3	0xbc1ee411	-0.00969793
4	0xb5a67a64	-1.2403584e-06
5	0xba118570	-0.0005551195
6	0xbee9e80e	-0.45684856
7	0x3913556a	0.00014050832

dense_emb.14.weight f4 [8, 1]
0	0xbec53422	-0.38516337
1	0x3e88b9c1	0.2670422
2	0xbf7a0cda	-0.9767586
3	0xbdc7295f	-0.09724688
4	0x3cfebd31	0.031096073
5	0xbf3ed666	-0.74545896
6	0x3f518a49	0.8185163
7	0x3f8166d4	1.0109506

dense_emb.14.bias f4 [8]
0	0xbe8d3907	-0.2758257
1	0xbeca55ac	-0.39518487
2	0xb5a6dd0e	-1.2432299e-06
3	0x3dbb7d64	0.09154776
4	0x3ccd25b9	0.025042402
5	0x3da716be	0.081586346
6	0xbc342dcb	-0.010997246
7	0xbe49975d	-0.19686647

interact.wq.weight f4 [8, 8]
0	0x3c923423	0.017847126
1	0x3e381d54	0.17979938
2	0xbe284d45	-0.16435726
3	0x3dd10424	0.10205868
4	0xbe02ac12	-0.12760952
5	0xbc483221	-0.012218983
6	0x3d2dfa8f	0.04247528
7	0xbd6ce537	-0.057835784
8	0x3df8f9ce	0.121570215
9	0x3e3c268f	0.18374084
10	0xbe62e590	-0.22157884
11	0x3dc160d5	0.09442297
12	0xbcd48f19	-0.02594714
13	0xbe252839	-0.16128625
14	0xbcf29fc9	-0.029617207
15	0xbe1a75ac	-0.15083951
16	0xbcc00c62	-0.023443405
17	0xbd501e5f	-0.050810214
18	0xbcbff63b	-0.023432842
19	0x3d887ef2	0.06664838
20	0x3d7d8513	0.061894488
21	0xbe347f9c	-0.17626804
22	0x3d9c08e5	0.07618884
23	0x3d885b79	0.06658072
24	0xbd904112	-0.07043661
25	0xbd699da7	-0.057035115
26	0x3d93a022	0.07208277
27	0xbcddab59	-0.027059244
28	0x3cca3e0d	0.024687791
29	0xbdc4c243	-0.09607365
30	0x3cd3156f	0.025767056
31	0x3e00f78a	0.12594429
32	0xbde69436	-0.11258738
33	0xbd0e6a5f	-0.034769412
34	0xbe121821	-0.14267017
35	0xbdf64e12	-0.120266095
36	0x3cbff1c1	0.023430707
37	0xbd8603b4	-0.06543675
38	0x3dc12ba6	0.094321534
39	0x3d06e534	0.03293343
40	0x3e49723b	0.19672482
41	0xbcb1dfd4	-0.021713175
42	0x3cd204a5	0.02563698
43	0xbc93a520	-0.018023074
44	0x3d6066d2	0.054785557
45	0x3d0fda04	0.035120025
46	0x3c0b79af	0.008512898
47	0x3dcda0ab	0.100404106
48	0xbcbefb66	-0.023313235
49	0x3caf9696	0.02143411
50	0x3dcc2e4f	0.0996977
51	0x3ca736ba	0.020411838
52	0xbc185355	-0.009297212
53	0xbde5747d	-0.11203859
54	0xbcc2bc16	-0.023771327
55	0xbcbbad45	-0.02290977
56	0x3dfbafb8	0.12289375
57	0x3ddc2320	0.10748887
58	0xbc8c75d9	-0.017146038
59	0xbd892ab0	-0.06697595
60	0xbcbfb021	-0.023399414
61	0x3d6d1c96	0.05788859
62	0xbd0092ee	-0.031390123
63	0xbe498455	-0.19679387

interact.wk.weight f4 [8, 8]
0	0xbe48e72a	-0.19619432
1	0x3e464df0	0.19365668
2	0xbdda21af	-0.10650956
3	0xbe4788f9	-0.19485845
4	0x3c50c82b	0.012743036
5	0xbcd0e983	-0.025501972
6	0xbe0902c5	-0.13379963
7	0x3e0c3c58	0.13694894
8	0xbcf9205d	-0.03041094
9	0x3d866293	0.0656177
10	0xbde1d74b	-0.11027392
11	0x3e05bea8	0.13061011
12	0xbe0095f2	-0.125572
13	0x3dafc13a	0.08581777
14	0x3da31579	0.0796308
15	0x3e034325	0.12818582
16	0xbcab9a3d	-0.02094757
17	0xbc24c0e2	-0.0100557525
18	0xbdebd9b3	-0.11516132
19	0x3d78fe6a	0.060789503
20	0xbcb9f117	-0.022697968
21	0x3ca3bfbb	0.019988885
22	0xbd122dae	-0.035688095
23	0xbdcd790b	-0.10032853
24	0x3b21707f	0.0024633703
25	0xbdd7b56f	-0.105326526
26	0x3d1af787	0.037833717
27	0xbc811e08	-0.01576139
28	0x3dbab8b1	0.09117258
29	0xbcbf8663	-0.02337951
30	0x3dd7e854	0.1054236
31	0xbd957a6e	-0.07298742
32	0x3d79c3ae	0.06097763
33	0xbd57ec40	-0.05271554
34	0x3d5cd783	0.053916465
35	0x3cc2b77f	0.023769138
36	0x3c8af610	0.016963035
37	0xbccd10df	-0.025032459
38	0xbe388a60	-0.18021536
39	0x3e697ed1	0.22802283
40	0xbd68b0eb	-0.056809347
41	0x3d0f73ed	0.035022665
42	0x3c585a8a	0.01320518
43	0xbdcb3953	-0.09923043
44	0x3d363f16	0.044493757
45	0x3dd2c6e1	0.102918394
46	0xbda6e06e	-0.08148275
47	0xbccd9f97	-0.025100512
48	0x3d22261e	0.039587133
49	0xbc8a00c3	-0.016846066
50	0x3e1324a3	0.14369445
51	0xbd8d81cc	-0.069095224
52	0x3c8e75ba	0.01739012
53	0x3d954759	0.07288999
54	0xbd1bb290	-0.038012087
55	0x3e2abe5a	0.16674176
56	0xbdd29d21	-0.10283876
57	0x3e0162b3	0.12635307
58	0xbdc05de0	-0.09392905
59	0x3ccff2ba	0.025384296
60	0xbc8f8e9c	-0.017524056
61	0x3ce11db2	0.02747998
62	0xbc8e0a19	-0.0173388
63	0x3d96c2df	0.073613875

interact.wv.weight f4 [8, 8]
0	0xbe4e6c14	-0.20158416
1	0xbe6d0d6b	-0.2314965
2	0xbe359544	-0.17732722
3	0x3e1b15a2	0.15144971
4	0x3e716800	0.23574829
5	0xbd16b83c	-0.036796793
6	0x3de1841c	0.11011526
7	0x3e5479c5	0.20749576
8	0x3d925a29	0.07146103
9	0x3e129353	0.14314012
10	0xbe3da870	-0.18521285
11	0x3e10ab25	0.14127786
12	0xbe68849d	-0.22706838
13	0x3e3c44a8	0.18385565
14	0x3dcc6e2d	0.09981952
15	0xbe95c5ed	-0.29252568
16	0xbe898f67	-0.2686722
17	0xbe883bc7	-0.26608106
18	0x3c10153d	0.008794126
19	0x3dea5e83	0.11443808
20	0x3e8c171f	0.2736139
21	0x3ec4f838	0.38470626
22	0xbebc190d	-0.36737862
23	0xbe9a33f4	-0.30117762
24	0x3e3724ba	0.17885104
25	0xbdb024aa	-0.08600743
26	0x3eb78ad4	0.35848105
27	0xbdbbcdbc	-0.091701
28	0xbdb56452	-0.08857025
29	0x3d5b8e8e	0.053602748
30	0xbc3ec3df	-0.011643379
31	0x3e3c2847	0.1837474
32	0xbe94baf2	-0.29048878
33	0xbdc02efb	-0.09383961
34	0x3e9ca39d	0.30593577
35	0x3e70ddc7	0.23522101
36	0xbe33fb6d	-0.1757638
37	0x3ea1cc3b	0.31601128
38	0xbea81cb7	-0.32834408
39	0x3b370c8c	0.0027931063
40	0xbe82a042	-0.25512892
41	0x3e873bc7	0.26412794
42	0xbd30e4c5	-0.04318692
43	0x3d2ef4c0	0.04271388
44	0xbe7f9527	-0.24959241
45	0xbe5ebf3b	-0.21752636
46	0x3d3fb1b9	0.04680035
47	0xbe93e5ba	-0.28886205
48	0xbe8cdea9	-0.27513626
49	0x3e8ca5de	0.27470297
50	0x3e81e479	0.25369623
51	0xbe64bd98	-0.2233795
52	0xbc05090a	-0.008119831
53	0xbe8e25a2	-0.27763087
54	0xbe590ce9	-0.21196331
55	0xbea13687	-0.31486914
56	0x3e3baca7	0.1832758
57	0xbe893a3c	-0.26802242
58	0xbdfc38c7	-0.12315517
59	0x3e1784fe	0.14796826
60	0x3df60c11	0.1201402
61	0x3e81ddb0	0.25364447
62	0xbe0877e5	-0.13326986
63	0x3e82da6b	0.25557265

interact.res.weight f4 [8, 160]
0	0x3baa5d10	0.005199082
1	0x3d32cdd4	0.043653324
2	0x3d71ddfe	0.0590496
3	0x3d3c2fe7	0.04594412
4	0xbc77974e	-0.015111757
5	0xbd6c1edb	-0.057646614
6	0x3d4547a3	0.04816402
7	0x3cbf810f	0.02337697
8	0x3cbe7c97	0.023252768
9	0xbd0dfe61	-0.034666423
10	0x3d4e45eb	0.050359648
11	0x3ba2d317	0.0049690115
12	0x3d89cb92	0.06728281
13	0xbcdedb8c	-0.027204297
14	0x3cc8793b	0.02447187
15	0x3ca5ad54	0.02022425
16	0x3c7c9f51	0.015418843
17	0x3c8b925b	0.017037561
18	0xbc70522b	-0.014668028
19	0x3ccde79c	0.025134854
20	0x3d705354	0.058673218
21	0xbca9cb40	-0.0207268
22	0xb9cc8831	-0.00039011383
23	0xbcc79ff1	-0.024368258
24	0x3ce72ba2	0.028219048
25	0x3c8e2540	0.017351747
26	0xbbe24cbf	-0.0069061215
27	0x3d7bf6ed	0.061514784
28	0xbcec0ebf	-0.028815625
29	0xbcef4614	-0.02920822
30	0x3c84e568	0.01622267
31	0xbd1d962d	-0.038473297
32	0xbc9d0a31	-0.019169899
33	0x3c390b06	0.011294132
34	0xbc335a9e	-0.010946898
35	0x3d1775f3	0.03697772
36	0xbc90abb6	-0.017660003
37	0x3cc17308	0.023614421
38	0xba1c210b	-0.00059558515
39	0x3caa2d6a	0.020773608
40	0xbd6c65ad	-0.057714153
41	0x3d2b5831	0.041832153
42	0x3c214310	0.009842649
43	0x3bf1efd4	0.007383326
44	0x3c2f8020	0.0107117
45	0xbcf0061b	-0.029299786
46	0xbb6b2083	-0.0035877533
47	0xbc6a2d16	-0.014292976
48	0x3cb8ef22	0.022574965
49	0xbd32c5ce	-0.043645673
50	0x3cebb902	0.028774742
51	0xbd75ba2b	-0.059991997
52	0xbd863764	-0.06553534
53	0x3cf0b8e1	0.029385032
54	0x3d166a9c	0.036722764
55	0xbcbe3087	-0.023216499
56	0xbd850b6c	-0.06496319
57	0x3d6d1973	0.0578856
58	0x3d149d0f	0.036282595
59	0x3d1f628a	0.038912334
60	0x3d95e85d	0.073197104
61	0xbd9b55b3	-0.07584705
62	0xbbf74f31	-0.007547282
63	0x3b2803f6	0.0025637127
64	0xbbc066f6	-0.005871649
65	0x3d19696c	0.037454054
66	0x3d37091c	0.04468642
67	0x3bf10bba	0.0073561342
68	0xbc816e80	-0.01579976
69	0x3d002ba4	0.03129162
70	0x3c8ca1d7	0.017167015
71	0xbbab3961	-0.005225346
72	0xbb94b3d3	-0.0045380383
73	0x3c092fdb	0.008373226
74	0xbc93e0b8	-0.01805149
75	0xbb27c9a2	-0.002560236
76	0xbd9bb4b4	-0.07602826
77	0x3b7f5843	0.003896252
78	0x3cf88531	0.030336948
79	0xbd2492fb	-0.040179234
80	0x3d8acac9	0.067769594
81	0xb6f39b84	-7.2600687e-06
82	0xbcb13186	-0.02163006
83	0x39a31871	0.00031107993
84	0xbd776814	-0.06040199
85	0xbd15aef3	-0.036543798
86	0xbd51ecef	-0.051251348
87	0xbd040bfe	-0.032238
88	0xbcd72694	-0.026263513
89	0x3d7bd547	0.061482694
90	0xbcaa4a18	-0.020787284
91	0x3cb05f52	0.021529827
92	0xbcca6a78	-0.024708971
93	0x3d0c73dc	0.03429018
94	0x3bdc31ed	0.006719819
95	0x3cafbd28	0.021452501
96	0x3d401c95	0.046902258
97	0xbd802c28	-0.06258422
98	0xbcee8d59	-0.029120134
99	0xbd7b0572	-0.06128449
100	0xbcd71b62	-0.026258174
101	0x3d384f67	0.0449976
102	0xbbb1687d	-0.0054140673
103	0xbd658c21	-0.05604184
104	0x3d6aae8d	0.05729537
105	0x3c9a4981	0.018833878
106	0xbd3a29d2	-0.04545004
107	0x3cfcd23f	0.030861972
108	0xbcaea33e	-0.021318074
109	0x3d295d69	0.04134885
110	0x3cd2ae4f	0.025717882
111	0xbbaf6a8e	-0.0053532785
112	0xbd555512	-0.052083082
113	0x3d1103aa	0.035403885
114	0x3d7e6072	0.062103696
115	0xbd1f9146	-0.038956903
116	0xbd1f4b32	-0.03889007
117	0xbc844c5d	-0.016149694
118	0x3b269166	0.0025416254
119	0x3d191501	0.037373547
120	0x3a8466da	0.0010101453
121	0x3cc57a11	0.024106057
122	0xbd1fc6c7	-0.03900793
123	0x3c90aeda	0.0176615
124	0xbc23e434	-0.010003138
125	0x3c9fbf5d	0.019500429
126	0x3cd574ba	0.026056636
127	0xbb11143c	-0.0022137305
128	0xbcd14493	-0.025545394
129	0x3c0db5a6	0.008649265
130	0xbd19eae9	-0.037577543
131	0xbc27429e	-0.010208754
132	0xbb8aaeaa	-0.0042322474
133	0x3ac6628d	0.0015135572
134	0xbc64b839	-0.013959938
135	0x3ca5acbb	0.020223966
136	0xbd675b24	-0.056483403
137	0xbc2e121b	-0.010624434
138	0x3caf94cf	0.021433262
139	0x3ca30640	0.019900441
140	0xbb5d0327	-0.0033723803
141	0xbd88524f	-0.06656324
142	0x3bca5163	0.006174253
143	0x3d3f1467	0.046650317
144	0xbce9de5f	-0.028548418
145	0x3c7ab679	0.015302294
146	0x3cfbb1ff	0.030724524
147	0xbc84695f	-0.016163526
148	0xbd6c5dc7	-0.05770662
149	0xbbf14acc	-0.007363653
150	0x3cafab64	0.02144403
151	0xbc893d2d	-0.016752804
152	0x3cec7cf0	0.028868169
153	0x3902f0ff	0.00012487544
154	0xbd4286f7	-0.047491994
155	0x3d251311	0.040301386
156	0x3bec6123	0.007213728
157	0x3cf6a4ce	0.030107882
158	0x3d41ce5c	0.04731594
159	0xbcbf8b9f	-0.023382006
160	0x3d9b132d	0.07572017
161	0xbd360688	-0.044439822
162	0xbd4a095f	-0.049325343
163	0xbd4248fa	-0.047432877
164	0xbcf0683c	-0.029346578
165	0x3d16ff95	0.036864836
166	0xbb1c14b5	-0.0023816053
167	0xbd617c38	-0.055050105
168	0x3c8ab1dc	0.016930513
169	0xbc34b2a0	-0.011028916
170	0xbc517362	-0.012783857
171	0xbd74a45d	-0.05972706
172	0xbc54a558	-0.012978874
173	0x3cd4b68e	0.025965955
174	0xbc1443cd	-0.009049368
175	0xbd09d5b5	-0.033651073
176	0x3cb4e12e	0.02208003
177	0xbd521f79	-0.051299546
178	0xbc48d52d	-0.012257856
179	0xbd584e18	-0.05280885
180	0xbc40001b	-0.011718775
181	0x3c96b541	0.018396975
182	0xbabd61a0	-0.001444865
183	0xbcbac5f5	-0.022799471
184	0x3d2bf9dd	0.041986335
185	0xbd2667b6	-0.04062625
186	0xbd22acd1	-0.03971559
187	0xbd1a2b6f	-0.037639078
188	0xbd067e85	-0.032835502
189	0x3c4547b0	0.012041017
190	0xbcf1894a	-0.02948441
191	0xbcfe327c	-0.031029932
192	0xbce66030	-0.028122038
193	0x3c1db25c	0.009625044
194	0xbcf07771	-0.02935383
195	0xbc53497a	-0.012895936
196	0xbcbeb3d4	-0.023279108
197	0x3ca50ff7	0.020149214
198	0x3cc20f5c	0.023688965
199	0xbce9c57b	-0.028536549
200	0x3d0245cf	0.031804856
201	0xbb1d25fd	-0.0023978942
202	0xbca6a0b6	-0.020340305
203	0xbd044bc5	-0.032298822
204	0xbc574db6	-0.013141086
205	0x3d609633	0.05483074
206	0xbc53e525	-0.01293305
207	0xbd6b6619	-0.057470415
208	0xbd4da069	-0.050201807
209	0xbd7322a5	-0.05935921
210	0x3d264cf3	0.04060073
211	0x3d5e64ed	0.05429547
212	0x3c8c8f25	0.0171581
213	0xbd4ed384	-0.050494686
214	0x3cb46fef	0.02202603
215	0x3d0a8bc0	0.033824682
216	0x3d2a6dbf	0.04160857
217	0xbda2cfb9	-0.07949776
218	0xbcb2cdb4	-0.021826603
219	0xbac48d6f	-0.0014995764
220	0xbd1b74ab	-0.03795306
221	0x3bb6c659	0.005577844
222	0xbd1c8790	-0.03821522
223	0xbd3eef8a	-0.04661516
224	0x3bbb1d02	0.005710245
225	0xbd154aba	-0.036448218
226	0xbd0c13b1	-0.034198467
227	0xbb464dea	-0.0030258843
228	0xbcea8369	-0.028627114
229	0x3d8c8762	0.0686176
230	0xbd911207	-0.070835166
231	0xbd39e411	-0.045383517
232	0xbb7d129c	-0.0038615828
233	0xbd297929	-0.041375313
234	0x3d525e38	0.051359385
235	0x3d21b686	0.03948071
236	0xbb87ba89	-0.00414211
237	0xbc81fb4f	-0.015866904
238	0x3bcd16a9	0.006258805
239	0x3d73cb62	0.059520133
240	0xbd396963	-0.04526652
241	0x3d53d8eb	0.05172054
242	0x3d4ed0bc	0.050492033
243	0xbc917f51	-0.017760905
244	0x3d17a32f	0.03702086
245	0x3ce46449	0.027879851
246	0x3cab58f6	0.020916443
247	0x3d3c2ba8	0.04594007
248	0x3c9386bf	0.018008588
249	0x3c1eea55	0.009699424
250	0xbd47876d	-0.048713136
251	0xbd8b33ef	-0.06797015
252	0xbd06bda4	-0.0328957
253	0x3c28fe34	0.010314513
254	0xbcfce78b	-0.030872127
255	0xbb44b4c3	-0.003001497

fc1.weight f4 [2, 8]
0	0x3791813d	1.7345528e-05
1	0x3bfa6199	0.007641029
2	0xbe60db63	-0.2195869
3	0xb4fdac82	-4.7250438e-07
4	0x3d7adc30	0.061245143
5	0x3c3842f6	0.0112464335
6	0x3e2bad41	0.1676531
7	0x36cacce6	6.0439224e-06
8	0x3e098c2f	0.13432382
9	0xbdacba1f	-0.08433937
10	0xba0e5aa2	-0.00054303755
11	0x3c0675b1	0.008206771
12	0x3d842135	0.06451646
13	0xbe0d7eb4	-0.13817865
14	0xbe1edcf1	-0.1551397
15	0x38036de7	3.133519e-05

fc1.bias f4 [2]
0	0xbc8589a7	-0.01630099
1	0x3cc22851	0.023700865

exp_avg f4 [11, 8]
0	0x3a8df49b	0.0010830344
1	0x3a2a12bf	0.0006487779
2	0xba952ebd	-0.0011381727
3	0xb9456f50	-0.00018828851
4	0x3a977c39	0.0011557407
5	0xb8158e4e	-3.56569e-05
6	0x3ac1422e	0.0014744455
7	0x3a7fe9c2	0.00097623107
8	0x39475b4b	0.00019012128
9	0xae051e28	-3.0267483e-11
10	0x3ad5df1b	0.0016317101
11	0xb9660d10	-0.00021939375
12	0xba2eed82	-0.00066729647
13	0xba6deac5	-0.0009075816
14	0x3a3af73b	0.0007132177
15	0x3acdf6bd	0.0015713793
16	0xb167242a	-3.363548e-09
17	0x327a1519	1.4556712e-08
18	0xba6ddf7f	-0.0009074136
19	0x326cc151	1.3780963e-08
20	0xb9ed2b2b	-0.00045236325
21	0x33d07bea	9.7082946e-08
22	0xb11d11db	-2.2856657e-09
23	0xb7d1e958	-2.50234e-05
24	0xb16cf736	-3.4483043e-09
25	0xb9bafb22	-0.00035663793
26	0xb88e76a1	-6.793184e-05
27	0xba76e434	-0.000941816
28	0xb9dd21f9	-0.00042177716
29	0x39a31c16	0.00031110708
30	0xb80b5b8e	-3.322545e-05
31	0xb973dbed	-0.00023256215
32	0xb922fd54	-0.00015543896
33	0xaf9bfe5a	-2.8375063e-10
34	0xafeb6352	-4.2816822e-10
35	0xba36d975	-0.00069751526
36	0x3958a1e9	0.00020659681
37	0xb9ef871d	-0.000456863
38	0xb91cb97e	-0.0001494642
39	0xba191a7a	-0.0005840432
40	0xb88d9baf	-6.752402e-05
41	0xb9d3c675	-0.00040392918
42	0xb988b396	-0.00026073743
43	0x3a683de9	0.0008859323
44	0xb8286e7c	-4.0157218e-05
45	0x3097b458	1.1037953e-09
46	0x3a1d287b	0.0005995107
47	0x391ddd6b	0.00015055171
48	0xbb027df1	-0.0019911493
49	0xba36212b	-0.00069476914
50	0xb10d1926	-2.0532496e-09
51	0xba89296b	-0.0010464614
52	0xb7a16adc	-1.9242456e-05
53	0x3aa0d4b9	0.0012270428
54	0xb12bf6ba	-2.5024023e-09
55	0x312bbe1e	2.4991844e-09
56	0x3a8935e9	0.0010468337
57	0xb2a7d264	-1.9537033e-08
58	0x376fb649	1.4287952e-05
59	0x3891f52b	6.959805e-05
60	0xb97064e6	-0.00022925771
61	0x301689ba	5.4765403e-10
62	0x39f04a19	0.00045831574
63	0x30c93913	1.4640896e-09
64	0xb5a0893b	-1.1960868e-06
65	0x3665b2bc	3.4227696e-06
66	0xba555b5b	-0.0008138918
67	0x39167ff9	0.00014352788
68	0xb9a2663e	-0.00030975224
69	0x3992f90e	0.0002803285
70	0xb937c79f	-0.00017526605
71	0xba21930e	-0.00061635755
72	0x39c6ca5d	0.00037916275
73	0x39530347	0.00020123749
74	0x39a92b59	0.00032266488
75	0xb388ff01	-6.3793784e-08
76	0xb91d59e8	-0.0001500618
77	0xb8f1f6ef	-0.000115377705
78	0x3a27e2c7	0.0006404337
79	0xb894f5fc	-7.103008e-05
80	0xb9fdcdac	-0.00048409158
81	0x39a8848b	0.0003214221
82	0xb891c806	-6.951396e-05
83	0x37608f2d	1.3384776e-05
84	0xbae2684d	-0.0017273516
85	0x3a1070e0	0.0005509984
86	0xba2293d6	-0.0006201839
87	0xb9b7c399	-0.00035050212

exp_avg_sq f4 [11, 8]
0	0x34a4a050	3.0664023e-07
1	0x34114d5f	1.3532325e-07
2	0x34b2dccd	3.3315737e-07
3	0x32e29fd5	2.6382546e-08
4	0x34b78508	3.41832e-07
5	0x31d803b2	6.2868475e-09
6	0x350b148f	5.181145e-07
7	0x348ab091	2.5832972e-07
8	0x32e51514	2.6668694e-08
9	0x2962c48d	5.035256e-14
10	0x3525fa31	6.1831366e-07
11	0x3306d8fe	3.139666e-08
12	0x3417afdf	1.4126952e-07
13	0x34765228	2.2940424e-07
14	0x34281460	1.5653632e-07
15	0x351b61c5	5.7884273e-07
16	0x2c81a010	3.684171e-12
17	0x2f7b1935	2.2837272e-10
18	0x347633b7	2.2929349e-07
19	0x2e3487c9	4.1047863e-11
20	0x33ab371b	7.9728316e-08
21	0x3069b7a2	8.5025864e-10
22	0x2e918d6f	6.61896e-11
23	0x31ae9fc7	5.082231e-09
24	0x2f373052	1.666092e-10
25	0x33772d36	5.7550288e-08
26	0x322bf58e	1.0009343e-08
27	0x3482caf8	2.4362066e-07
28	0x339b3923	7.228143e-08
29	0x334ec3d2	4.814121e-08
30	0x31ce77e3	6.0090186e-09
31	0x331065dc	3.3620253e-08
32	0x32b83aec	2.1447214e-08
33	0x2c65d595	3.266142e-12
34	0x2cb31664	5.089972e-12
35	0x3422625f	1.5123213e-07
36	0x32fba0c3	2.9293352e-08
37	0x33ad983c	8.0836315e-08
38	0x32b0db36	2.0588782e-08
39	0x33f80366	1.1549018e-07
40	0x322b21de	9.9612105e-09
41	0x33923c57	6.8096305e-08
42	0x3325b41e	3.8580872e-08
43	0x346ce590	2.2062727e-07
44	0x31e9a620	6.8000787e-09
45	0x2d8531f1	1.5142528e-11
46	0x3400f357	1.2009455e-07
47	0x32b230d5	2.0744134e-08
48	0x356c4014	8.8010097e-07
49	0x342165d6	1.5031341e-07
50	0x2e206c49	3.6475965e-11
51	0x349b8059	2.8964385e-07
52	0x319670f0	4.378414e-09
53	0x34cb057d	3.781569e-07
54	0x2ea61a04	7.553427e-11
55	0x2ea6205a	7.554553e-11
56	0x349b97b6	2.8981384e-07
57	0x2fcca63f	3.722551e-10
58	0x31816a3f	3.766473e-09
59	0x322f583c	1.0206403e-08
60	0x330dfa21	3.305661e-08
61	0x2eb75bc7	8.3381795e-11
62	0x33ae6027	8.1199964e-08
63	0x2e170ab0	3.4342917e-11
64	0x30e19955	1.6414484e-09
65	0x31147a65	2.1606408e-09
66	0x344ed13c	1.9261364e-07
67	0x32a9a192	1.9747663e-08
68	0x334d9c4a	4.7872426e-08
69	0x33353853	4.2193573e-08
70	0x32d170e3	2.4382137e-08
71	0x3406703b	1.2520552e-07
72	0x33862a06	6.247505e-08
73	0x32f434b7	2.842931e-08
74	0x3358ba02	5.0460592e-08
75	0x30877a8d	9.857374e-10
76	0x32b196d3	2.0674099e-08
77	0x3288b8b8	1.5916484e-08
78	0x340e77cc	1.3268362e-07
79	0x32324360	1.0376283e-08
80	0x33bc7ed9	8.777506e-08
81	0x3357a54a	5.0208918e-08
82	0x322f2c75	1.0196449e-08
83	0x317ae344	3.6508974e-09
84	0x35377b13	6.835191e-07
85	0x33e37f64	1.05936834e-07
86	0x3407b321	1.2638021e-07
87	0x33718c48	5.623977e-08

exp_avg f4 [11, 8]
0	0x39845956	0.00025243562
1	0xb903174d	-0.00012501814
2	0xb9151151	-0.00014216198
3	0xb329e0d9	-3.9552877e-08
4	0xb83a39a9	-4.4399556e-05
5	0xb119b08d	-2.2364788e-09
6	0x3a1c1dc7	0.0005955365
7	0x3a51ba2d	0.00080004596
8	0x391c426c	0.00014902063
9	0xba3bca3b	-0.00071636186
10	0x33b6f8e0	8.5203055e-08
11	0xb6c6d9da	-5.926221e-06
12	0xb09a404f	-1.1223252e-09
13	0xba15ebe5	-0.000571905
14	0x2f54b4de	1.9345545e-10
15	0xb957fa83	-0.0002059732
16	0xba9b7de7	-0.0011863083
17	0xb30fd4e5	-3.348841e-08
18	0x39ae8df1	0.0003329362
19	0x399ee5ea	0.00030307408
20	0x3952936f	0.00020082084
21	0xba41ca29	-0.000739249
22	0x390fd2db	0.00013716093
23	0x36a6d049	4.971433e-06
24	0x3aa709b7	0.0012743984
25	0xb3a5be79	-7.718058e-08
26	0x3a32ae48	0.0006816131
27	0xba7f5253	-0.00097397453
28	0x3aa8c08f	0.001287477
29	0xb20e8997	-8.296772e-09
30	0xb78a9031	-1.6518026e-05
31	0x37ed1ea2	2.8266866e-05
32	0x3684201d	3.937645e-06
33	0xba10feaf	-0.0005531115
34	0x382e93e2	4.162256e-05
35	0x38b91490	8.8253175e-05
36	0x3a88c15e	0.0010433604
37	0x30b90dc0	1.346443e-09
38	0xb9112507	-0.00013842071
39	0x314a1461	2.9406453e-09
40	0x386ee349	5.6955298e-05
41	0xb1f0291c	-6.989593e-09
42	0xb3b7e800	-8.563802e-08
43	0x37edbfee	2.8341976e-05
44	0xb9ebc993	-0.00044972877
45	0xba2a9500	-0.0006507188
46	0xba4ea7bc	-0.0007883271
47	0x386181c5	5.3765038e-05
48	0xb8f9a59a	-0.00011904091
49	0xb9e13a3f	-0.0004295874
50	0x39623cc3	0.00021575675
51	0x3a220df2	0.00061818876
52	0xb8c9c4b1	-9.6210635e-05
53	0x399f052a	0.0003033069
54	0xb9cdafc5	-0.00039231605
55	0x31bbacce	5.462062e-09
56	0xb8f437f5	-0.000116452495
57	0xba227b88	-0.0006198217
58	0xb9fbf54d	-0.00048057214
59	0x3a1de95d	0.00060238485
60	0x38fac554	0.00011957684
61	0xb95b293c	-0.00020900829
62	0x3ad7b771	0.0016457868
63	0x38fb86be	0.0001199371
64	0x33c0425c	8.9527674e-08
65	0xb0844d11	-9.626168e-10
66	0xb91b25da	-0.00014796053
67	0xbad3898a	-0.0016139012
68	0x3055ea2e	7.782174e-10
69	0x3a95a029	0.0011415529
70	0xb336d0bc	-4.256502e-08
71	0x3195d674	4.3608512e-09
72	0xb8305a74	-4.204591e-05
73	0x38f872f4	0.00011846973
74	0x37d54066	2.5421567e-05
75	0xb20bce15	-8.1377225e-09
76	0xb01d367f	-5.719371e-10
77	0x388275da	6.2208346e-05
78	0xb521a850	-6.02221e-07
79	0xba746002	-0.00093221676
80	0x39ddc392	0.00042298116
81	0xba8560d3	-0.0010175951
82	0xb88005b7	-6.10458e-05
83	0x3a0201c7	0.0004959371
84	0x3a462271	0.0007558233
85	0x39f288ce	0.00046259764
86	0x35c4172d	1.4609883e-06
87	0x2fdd62c5	4.0269846e-10

exp_avg_sq f4 [11, 8]
0	0x331f4d54	3.7090402e-08
1	0x3293be50	1.7199596e-08
2	0x32a7fba6	1.9555795e-08
3	0x308d6a5f	1.0289333e-09
4	0x31fa46b2	7.2839947e-09
5	0x2f1d2b98	1.4294554e-10
6	0x33ff57d6	1.189034e-07
7	0x344942fa	1.874395e-07
8	0x32b04fa7	2.0525318e-08
9	0x34293ba6	1.5761051e-07
10	0x307dfc09	9.239903e-10
11	0x3132a083	2.599365e-09
12	0x2d80a7bd	1.4626406e-11
13	0x33f06117	1.11935314e-07
14	0x2b36c95c	6.493883e-13
15	0x32fac24f	2.9192192e-08
16	0x34bfb91f	3.5711216e-07
17	0x2cba9996	5.3034894e-12
18	0x3361b34d	5.2549968e-08
19	0x334800d5	4.6566885e-08
20	0x32f3819d	2.8347865e-08
21	0x3431cfb3	1.655997e-07
22	0x32a1e3f2	1.8846524e-08
23	0x31255cc5	2.4063394e-09
24	0x34d88198	4.0327427e-07
25	0x3082f214	9.527548e-10
26	0x341cb62d	1.4594907e-07
27	0x348a2a38	2.573522e-07
28	0x34dc4e24	4.1035048e-07
29	0x2fae38cd	3.1690775e-10
30	0x318b042b	4.0459063e-09
31	0x31bae5ba	5.4394294e-09
32	0x311ad993	2.2533626e-09
33	0x33e4ce16	1.0654564e-07
34	0x31ef8d78	6.9718986e-09
35	0x325608a6	1.2458406e-08
36	0x349abbdd	2.8821424e-07
37	0x2ddf2cd3	2.537207e-11
38	0x32a378c2	1.9030612e-08
39	0x2d46b6f9	1.1295625e-11
40	0x3215ea8e	8.726273e-09
41	0x2f898d40	2.502052e-10
42	0x309fab76	1.1617505e-09
43	0x31bb324a	5.4481335e-09
44	0x33a9c891	7.9061586e-08
45	0x3411f728	1.3594092e-07
46	0x34449db9	1.8311302e-07
47	0x320f9565	8.357664e-09
48	0x328ce132	1.6400552e-08
49	0x339f3b74	7.414829e-08
50	0x33044157	3.079307e-08
51	0x34070a99	1.257671e-07
52	0x32671945	1.3451715e-08
53	0x334827f1	4.6602455e-08
54	0x338c846f	6.5433476e-08
55	0x30109727	5.2601695e-10
56	0x3289f012	1.605807e-08
57	0x34079485	1.2626886e-07
58	0x33ba89aa	8.686341e-08
59	0x3401e10e	1.2095936e-07
60	0x328d7db9	1.6471732e-08
61	0x32fefecc	2.968536e-08
62	0x35287fbd	6.277076e-07
63	0x328de70f	1.6519634e-08
64	0x305ebbcd	8.103001e-10
65	0x2d3d1cf2	1.0749833e-11
66	0x32af043b	2.0374605e-08
67	0x3522d04d	6.065282e-07
68	0x2f2425d8	1.4929158e-10
69	0x34b3c10f	3.3481817e-07
70	0x309a8cf2	1.1245034e-09
71	0x2f10c396	1.316621e-10
72	0x31f10c51	7.0154234e-09
73	0x328c3a9d	1.63248e-08
74	0x31af8f6b	5.109475e-09
75	0x2fadde9a	3.1626685e-10
76	0x2ec00496	8.731964e-11
77	0x32206973	9.337202e-09
78	0x30c5afb3	1.4383573e-09
79	0x3480a15b	2.395926e-07
80	0x339bd693	7.256781e-08
81	0x34947a68	2.765621e-07
82	0x321e14cc	9.201539e-09
83	0x33c3272f	9.0875226e-08
84	0x3438011e	1.7136742e-07
85	0x33b0afb1	8.227597e-08
86	0x30ec03ca	1.7172337e-09
87	0x2cb1c824	5.0528626e-12

exp_avg f4 [11, 8]
0	0xba359908	-0.00069274055
1	0x3a06b7e0	0.0005139094
2	0x3a4186f9	0.0007382478
3	0xb2a6a510	-1.9400005e-08
4	0xb93e51af	-0.00018150242
5	0xb7d49f21	-2.534647e-05
6	0x30c2f0a0	1.4183748e-09
7	0x39d4e4c8	0.00040606246
8	0xbaa74058	-0.0012760265
9	0xb91b327d	-0.0001480076
10	0x3a4762ce	0.00076059706
11	0xb8784e05	-5.920047e-05
12	0xb71cc092	-9.343161e-06
13	0xb9db0bdd	-0.00041779774
14	0xb93dcf82	-0.00018101747
15	0x302c0514	6.258045e-10
16	0x39d60cdf	0.0004082685
17	0xb9e98a25	-0.0004454415
18	0x3a44e37d	0.0007510705
19	0xba9f4e1c	-0.0012154016
20	0x39be6362	0.0003631367
21	0xba1484f1	-0.0005665562
22	0xba1ba62e	-0.00059375435
23	0xbaa36929	-0.0012467253
24	0xb1a5ebaf	-4.828926e-09
25	0x32052edf	7.752276e-09
26	0xb9e44f76	-0.00043546752
27	0x39d8f166	0.00041378586
28	0x3aad5c28	0.0013226317
29	0xb99756d3	-0.00028865653
30	0xba18c5ac	-0.0005827795
31	0x3a98860f	0.0011636632
32	0x3a2e7c19	0.0006656065
33	0x393a79d1	0.00017783722
34	0x37a8c964	2.012094e-05
35	0x3976db56	0.00023542097
36	0xb85f6d3e	-5.3269083e-05
37	0xbab9e133	-0.0014181494
38	0xba71aa24	-0.00092187733
39	0xb83939e8	-4.4161367e-05
40	0x3947f9e4	0.0001907121
41	0xb8e99892	-0.00011138724
42	0x3a042cd5	0.0005042081
43	0xba479d27	-0.0007614665
44	0x3a8feb1d	0.0010980103
45	0x3a309e30	0.0006737439
46	0x384dfdef	4.9112303e-05
47	0xba57e0e4	-0.00082351104
48	0xba9fa6cc	-0.0012180447
49	0x32c39890	2.2770365e-08
50	0x3a1feb41	0.0006100424
51	0xb89cd40a	-7.478155e-05
52	0x303411ee	6.55091e-10
53	0x39d6e8fd	0.0004099085
54	0xb62a166c	-2.5345025e-06
55	0x39cd3d6c	0.0003914641
56	0xb85638db	-5.1074527e-05
57	0xb081b8ab	-9.438471e-10
58	0x3370e83b	5.6090567e-08
59	0xba57ab09	-0.00082270853
60	0x3a8e8d7d	0.0010875907
61	0x3aa3e4dd	0.001250412
62	0xb9e6aeda	-0.00043999293
63	0x3a82dbd6	0.0009983729
64	0xb221c1eb	-9.415525e-09
65	0xb1593ced	-3.1612288e-09
66	0xb902854f	-0.00012447427
67	0xb98ef614	-0.00027267693
68	0x2fa45338	2.9890557e-10
69	0x39da4025	0.00041627992
70	0x3a4db8ff	0.0007847696
71	0xb68776b6	-4.0371333e-06
72	0xba3bc4ea	-0.00071628264
73	0x3138059d	2.6778715e-09
74	0x3af652e6	0.0018793016
75	0x3aedc04a	0.0018138972
76	0xb8e104f8	-0.000107297616
77	0xb806bf27	-3.2126114e-05
78	0xb28f004b	-1.6647524e-08
79	0xb9a47060	-0.00031364243
80	0x38d5e0d9	0.000101985126
81	0x30645487	8.306604e-10
82	0x39ddf9ff	0.00042338666
83	0x3932c914	0.0001705031
84	0x39964de5	0.00028668265
85	0xbaa8c868	-0.0012877109
86	0x3847fec3	4.7682563e-05
87	0xba452a02	-0.0007521213

exp_avg_sq f4 [11, 8]
0	0x3420abb9	1.4963634e-07
1	0x33cd757b	9.567426e-08
2	0x343159ef	1.6517127e-07
3	0x2fcc5cbb	3.7173273e-10
4	0x32d99c90	2.5333321e-08
5	0x31af435f	5.1008295e-09
6	0x2e6fc285	5.4515076e-11
7	0x33934c23	6.85907e-08
8	0x34d8fb18	4.041583e-07
9	0x32af0c17	2.037818e-08
10	0x3439d62a	1.730738e-07
11	0x321a69de	8.988051e-09
12	0x3155ce1a	3.1112735e-09
13	0x3399353f	7.134303e-08
14	0x32d8f85d	2.5258652e-08
15	0x3094c544	1.0824484e-09
16	0x33946606	6.910345e-08
17	0x33a78304	7.800375e-08
18	0x34363197	1.6968112e-07
19	0x34c7c589	3.7210364e-07
20	0x337d334d	5.895281e-08
21	0x33ed0db0	1.1038662e-07
22	0x33fe3331	1.18371084e-07
23	0x34d09313	3.885003e-07
24	0x2ee92d8b	1.0603703e-10
25	0x2f4ec863	1.8806783e-10
26	0x33a247e6	7.556791e-08
27	0x33972b5a	7.039371e-08
28	0x34e6ad83	4.2967085e-07
29	0x333bfdbb	4.3770097e-08
30	0x33f736b3	1.15117835e-07
31	0x34b9a392	3.4577948e-07
32	0x341719bf	1.4072337e-07
33	0x32d4c182	2.4768045e-08
34	0x319a4114	4.4893884e-09
35	0x33127a42	3.4104467e-08
36	0x320e7519	8.292113e-09
37	0x3502058a	4.8436834e-07
38	0x347ca116	2.3527932e-07
39	0x31f96cbe	7.2592163e-09
40	0x32e5e095	2.6761237e-08
41	0x32843bb9	1.5393981e-08
42	0x33c7dd79	9.306945e-08
43	0x343a2a50	1.7337993e-07
44	0x34a86f99	3.1373636e-07
45	0x3419f0ac	1.4336791e-07
46	0x320665fd	7.823016e-09
47	0x3452b848	1.9624815e-07
48	0x34c881de	3.7347394e-07
49	0x2fe25d3b	4.1175405e-10
50	0x34045e5c	1.2327786e-07
51	0x3239f342	1.0823728e-08
52	0x2da2a046	1.8488443e-11
53	0x33953849	6.9485914e-08
54	0x3107ea02	1.9778104e-09
55	0x338c1a1e	6.524009e-08
56	0x320a442a	8.048156e-09
57	0x2d47606b	1.13332494e-11
58	0x309c3e47	1.1368194e-09
59	0x34526490	1.9594358e-07
60	0x34a5c7d9	3.0879053e-07
61	0x34d19f6a	3.9045273e-07
62	0x33a4a516	7.666874e-08
63	0x348fe390	2.68014e-07
64	0x300cc746	5.121489e-10
65	0x2e9d7c7a	7.161645e-11
66	0x32931d6b	1.712643e-08
67	0x332f1755	4.0766583e-08
68	0x2eb94d80	8.426593e-11
69	0x33986de4	7.0980406e-08
70	0x3443376b	1.8180951e-07
71	0x311c72a8	2.2766162e-09
72	0x342933c1	1.575818e-07
73	0x2ed104b0	9.505052e-11
74	0x35551249	7.937529e-07
75	0x35481104	7.4530567e-07
76	0x327f5b06	1.486365e-08
77	0x31ca24d1	5.8831593e-09
78	0x30043762	4.8100024e-10
79	0x3350eedb	4.864601e-08
80	0x3273a71b	1.4182457e-08
81	0x2d9f3f8f	1.8104433e-11
82	0x339c0baa	7.266438e-08
83	0x32cb47c1	2.366494e-08
84	0x333a6076	4.339423e-08
85	0x34dc5f97	4.1047744e-07
86	0x320395bb	7.659248e-09
87	0x343697ea	1.7005337e-07

exp_avg f4 [11, 8]
0	0xba850cc3	-0.0010150898
1	0xb89c25c8	-7.445697e-05
2	0xba673a37	-0.00088206254
3	0xb5ae232b	-1.2974245e-06
4	0xaf2ff1dd	-1.6002084e-10
5	0xbacacfeb	-0.0015473341
6	0x3a49d0f6	0.0007698679
7	0x3a1510fe	0.0005686431
8	0xb749c8bc	-1.2027271e-05
9	0xb936e799	-0.0001744315
10	0xb85bbff9	-5.2392457e-05
11	0x39dc9390	0.00042071613
12	0xbaf4c21e	-0.0018673574
13	0x3a3e9d21	0.0007271339
14	0xba6e1b71	-0.00090830686
15	0x3a426a33	0.00074163376
16	0xb6963591	-4.4765843e-06
17	0xaf5c3f98	-2.0031476e-10
18	0xb92cec9a	-0.00016491339
19	0x37db24e7	2.6124018e-05
20	0xbae31b3c	-0.0017326842
21	0xb4ae304b	-3.2445163e-07
22	0xba8ca9a1	-0.0010731706
23	0x39f7c67f	0.00047259402
24	0xba4b1d81	-0.0007748232
25	0xb9b92a2c	-0.0003531737
26	0xbacdcf14	-0.0015701973
27	0x3a124900	0.0005580336
28	0x3a32265f	0.0006795879
29	0x32bb2484	2.178627e-08
30	0xbaec654d	-0.0018035561
31	0x3975b502	0.00023432451
32	0x3a5a6976	0.0008331755
33	0xb8bcdc88	-9.005616e-05
34	0xb9f6e1b9	-0.00047088953
35	0xba43b0da	-0.00074650126
36	0x31cf98cb	6.0418635e-09
37	0xb9c2dbfd	-0.00037166468
38	0x39af2445	0.00033405624
39	0xb31a5c4a	-3.5939856e-08
40	0xb7a1f6d4	-1.9307634e-05
41	0x3a7bae67	0.0009600878
42	0xba196183	-0.0005851017
43	0x39c29bac	0.00037118548
44	0x35c1a1d6	1.4426721e-06
45	0x39c82a0f	0.0003817831
46	0xb40236b0	-1.2127089e-07
47	0xbaab93f5	-0.0013090359
48	0x3ada9b67	0.0016678394
49	0x394000f0	0.00018310896
50	0x3abcb742	0.0014397877
51	0x3874cc6f	5.8364527e-05
52	0x39678cf7	0.0002208239
53	0x39530716	0.00020125168
54	0xba973228	-0.0011535333
55	0xb79bcb83	-1.8572207e-05
56	0x39d7e146	0.00041175837
57	0x3a11ffd8	0.0005569435
58	0x39b2d994	0.00034112914
59	0xba0c4f0a	-0.0005352354
60	0x3a2ac1db	0.0006513872
61	0x38999aa5	7.324413e-05
62	0x39322953	0.00016990797
63	0xb33cdb87	-4.397182e-08
64	0x39097df8	0.00013112265
65	0x37f2d98e	2.8949955e-05
66	0x384915b5	4.794235e-05
67	0xb9aad0ed	-0.0003258059
68	0x39cc32a3	0.0003894764
69	0xb227aa99	-9.759469e-09
70	0xba437bec	-0.00074571255
71	0xb2bcb452	-2.196808e-08
72	0x390e464b	0.00013568361
73	0x39c9b6b8	0.00038473844
74	0xb9a7ee9a	-0.00032030494
75	0xb9a37f08	-0.00031184428
76	0x39476dea	0.00019019065
77	0x381d3906	3.7484824e-05
78	0xb6837c8e	-3.9186043e-06
79	0xb9f4c697	-0.00046687268
80	0x3a816611	0.0009872337
81	0xbaae3101	-0.0013289751
82	0xb1bb25cf	-5.4467146e-09
83	0xba70a2af	-0.0009179515
84	0x3a1d7625	0.00060066796
85	0x39828add	0.00024898993
86	0x38f7b19f	0.00011810962
87	0xb9e860a7	-0.000443225

exp_avg_sq f4 [11, 8]
0	0x3493e0e5	2.7544516e-07
1	0x323957d6	1.0788389e-08
2	0x346b38e1	2.1906773e-07
3	0x30e5ce79	1.6720626e-09
4	0x2fa5b632	3.0142783e-10
5	0x35174075	5.634568e-07
6	0x343d6a30	1.7640627e-07
7	0x33ee58ec	1.10989134e-07
8	0x316eb72a	3.4737675e-09
9	0x32d05a44	2.4255435e-08
10	0x320ce004	8.200008e-09
11	0x339aaede	7.202992e-08
12	0x3552aad2	7.847967e-07
13	0x342d346a	1.6130949e-07
14	0x3476a41a	2.2970235e-07
15	0x34329fca	1.6635673e-07
16	0x3122334a	2.3603257e-09
17	0x2c50cea8	2.9673295e-12
18	0x32c44f17	2.2853369e-08
19	0x31b255f1	5.1902522e-09
20	0x35387c17	6.8725916e-07
21	0x30b46059	1.3124107e-09
22	0x34a22da3	3.0208057e-07
23	0x33b5ef54	8.472003e-08
24	0x343f53f2	1.78188e-07
25	0x3373fde2	5.680875e-08
26	0x351b2d7c	5.780819e-07
27	0x33e7cbcc	1.0793846e-07
28	0x341bfefe	1.4528266e-07
29	0x2fd7c1bb	3.9245926e-10
30	0x35460c1e	7.377838e-07
31	0x3311b21d	3.3922436e-08
32	0x3456b0c9	1.9994617e-07
33	0x3259ba4e	1.2673423e-08
34	0x33b538df	8.438814e-08
35	0x343473a4	1.6805876e-07
36	0x2edbd8dc	9.997489e-11
37	0x3382a176	6.082966e-08
38	0x3362af41	5.2779118e-08
39	0x302ffca6	6.4023664e-10
40	0x3196b6c3	4.386352e-09
41	0x3486f55f	2.5137976e-07
42	0x33f8b1d8	1.15807495e-07
43	0x338260f0	6.0712296e-08
44	0x30eb0c81	1.7102054e-09
45	0x33876b98	6.3059986e-08
46	0x30a3935c	1.1901693e-09
47	0x34e2a2d2	4.2214248e-07
48	0x352c7cc2	6.425654e-07
49	0x32dbbadf	2.5579935e-08
50	0x350577d2	4.972072e-07
51	0x3218b92c	8.889668e-09
52	0x3307df47	3.1635206e-08
53	0x32f439bb	2.8431591e-08
54	0x34b6ee66	3.40736e-07
55	0x3193a7fc	4.2973607e-09
56	0x339625ff	6.991831e-08
57	0x33e720af	1.0762721e-07
58	0x33690f40	5.426341e-08
59	0x33da00d0	1.0151564e-07
60	0x341231ae	1.3615383e-07
61	0x3236caf4	1.06399405e-08
62	0x32ca83dc	2.3575858e-08
63	0x309abb10	1.1258141e-09
64	0x329adb0c	1.802757e-08
65	0x31bd9aee	5.5182374e-09
66	0x32041889	7.68899e-09
67	0x335b77fb	5.1099033e-08
68	0x338b2280	6.4789674e-08
69	0x2f64a277	2.0794198e-10
70	0x343429b8	1.6778984e-07
71	0x2ff2abcc	4.4141613e-10
72	0x32a03cd2	1.865411e-08
73	0x3388d760	6.37217e-08
74	0x3356ad24	4.9983228e-08
75	0x334f64ee	4.828774e-08
76	0x32e52d01	2.6679574e-08
77	0x31df2e18	6.4953944e-09
78	0x311af267	2.254774e-09
79	0x33b301d6	8.335671e-08
80	0x348d42f8	2.6312023e-07
81	0x34e89308	4.3320347e-07
82	0x3019b0bb	5.5912225e-10
83	0x347ae5cf	2.3366668e-07
84	0x340152ef	1.2044232e-07
85	0x331cacf2	3.6478873e-08
86	0x328bd1b0	1.6277085e-08
87	0x33a657c7	7.745944e-08
